<?xml version="1.0"?>
<net name="Model105" version="11">
	<layers>
		<layer id="0" name="x" type="Parameter" version="opset1">
			<data shape="?,3,?,?" element_type="f32" />
			<rt_info>
				<attribute name="old_api_map_element_type" version="0" value="f16" />
			</rt_info>
			<output>
				<port id="0" precision="FP32" names="x">
					<dim>-1</dim>
					<dim>3</dim>
					<dim>-1</dim>
					<dim>-1</dim>
				</port>
			</output>
		</layer>
		<layer id="1" name="Constant_17491_compressed" type="Const" version="opset1">
			<data element_type="f16" shape="1, 768, 1, 1" offset="0" size="1536" />
			<output>
				<port id="0" precision="FP16">
					<dim>1</dim>
					<dim>768</dim>
					<dim>1</dim>
					<dim>1</dim>
				</port>
			</output>
		</layer>
		<layer id="2" name="Constant_17491" type="Convert" version="opset1">
			<data destination_type="f32" />
			<rt_info>
				<attribute name="decompression" version="0" />
			</rt_info>
			<input>
				<port id="0" precision="FP16">
					<dim>1</dim>
					<dim>768</dim>
					<dim>1</dim>
					<dim>1</dim>
				</port>
			</input>
			<output>
				<port id="1" precision="FP32">
					<dim>1</dim>
					<dim>768</dim>
					<dim>1</dim>
					<dim>1</dim>
				</port>
			</output>
		</layer>
		<layer id="3" name="Constant_17486_compressed" type="Const" version="opset1">
			<data element_type="f16" shape="1, 768, 1, 1" offset="1536" size="1536" />
			<output>
				<port id="0" precision="FP16">
					<dim>1</dim>
					<dim>768</dim>
					<dim>1</dim>
					<dim>1</dim>
				</port>
			</output>
		</layer>
		<layer id="4" name="Constant_17486" type="Convert" version="opset1">
			<data destination_type="f32" />
			<rt_info>
				<attribute name="decompression" version="0" />
			</rt_info>
			<input>
				<port id="0" precision="FP16">
					<dim>1</dim>
					<dim>768</dim>
					<dim>1</dim>
					<dim>1</dim>
				</port>
			</input>
			<output>
				<port id="1" precision="FP32">
					<dim>1</dim>
					<dim>768</dim>
					<dim>1</dim>
					<dim>1</dim>
				</port>
			</output>
		</layer>
		<layer id="5" name="Constant_17481_compressed" type="Const" version="opset1">
			<data element_type="f16" shape="1, 768, 1, 1" offset="3072" size="1536" />
			<output>
				<port id="0" precision="FP16">
					<dim>1</dim>
					<dim>768</dim>
					<dim>1</dim>
					<dim>1</dim>
				</port>
			</output>
		</layer>
		<layer id="6" name="Constant_17481" type="Convert" version="opset1">
			<data destination_type="f32" />
			<rt_info>
				<attribute name="decompression" version="0" />
			</rt_info>
			<input>
				<port id="0" precision="FP16">
					<dim>1</dim>
					<dim>768</dim>
					<dim>1</dim>
					<dim>1</dim>
				</port>
			</input>
			<output>
				<port id="1" precision="FP32">
					<dim>1</dim>
					<dim>768</dim>
					<dim>1</dim>
					<dim>1</dim>
				</port>
			</output>
		</layer>
		<layer id="7" name="Constant_17474_compressed" type="Const" version="opset1">
			<data element_type="f16" shape="1, 384, 1, 1" offset="4608" size="768" />
			<output>
				<port id="0" precision="FP16">
					<dim>1</dim>
					<dim>384</dim>
					<dim>1</dim>
					<dim>1</dim>
				</port>
			</output>
		</layer>
		<layer id="8" name="Constant_17474" type="Convert" version="opset1">
			<data destination_type="f32" />
			<rt_info>
				<attribute name="decompression" version="0" />
			</rt_info>
			<input>
				<port id="0" precision="FP16">
					<dim>1</dim>
					<dim>384</dim>
					<dim>1</dim>
					<dim>1</dim>
				</port>
			</input>
			<output>
				<port id="1" precision="FP32">
					<dim>1</dim>
					<dim>384</dim>
					<dim>1</dim>
					<dim>1</dim>
				</port>
			</output>
		</layer>
		<layer id="9" name="Constant_17469_compressed" type="Const" version="opset1">
			<data element_type="f16" shape="1, 384, 1, 1" offset="5376" size="768" />
			<output>
				<port id="0" precision="FP16">
					<dim>1</dim>
					<dim>384</dim>
					<dim>1</dim>
					<dim>1</dim>
				</port>
			</output>
		</layer>
		<layer id="10" name="Constant_17469" type="Convert" version="opset1">
			<data destination_type="f32" />
			<rt_info>
				<attribute name="decompression" version="0" />
			</rt_info>
			<input>
				<port id="0" precision="FP16">
					<dim>1</dim>
					<dim>384</dim>
					<dim>1</dim>
					<dim>1</dim>
				</port>
			</input>
			<output>
				<port id="1" precision="FP32">
					<dim>1</dim>
					<dim>384</dim>
					<dim>1</dim>
					<dim>1</dim>
				</port>
			</output>
		</layer>
		<layer id="11" name="Constant_17464_compressed" type="Const" version="opset1">
			<data element_type="f16" shape="1, 384, 1, 1" offset="6144" size="768" />
			<output>
				<port id="0" precision="FP16">
					<dim>1</dim>
					<dim>384</dim>
					<dim>1</dim>
					<dim>1</dim>
				</port>
			</output>
		</layer>
		<layer id="12" name="Constant_17464" type="Convert" version="opset1">
			<data destination_type="f32" />
			<rt_info>
				<attribute name="decompression" version="0" />
			</rt_info>
			<input>
				<port id="0" precision="FP16">
					<dim>1</dim>
					<dim>384</dim>
					<dim>1</dim>
					<dim>1</dim>
				</port>
			</input>
			<output>
				<port id="1" precision="FP32">
					<dim>1</dim>
					<dim>384</dim>
					<dim>1</dim>
					<dim>1</dim>
				</port>
			</output>
		</layer>
		<layer id="13" name="Constant_17459_compressed" type="Const" version="opset1">
			<data element_type="f16" shape="1, 384, 1, 1" offset="6912" size="768" />
			<output>
				<port id="0" precision="FP16">
					<dim>1</dim>
					<dim>384</dim>
					<dim>1</dim>
					<dim>1</dim>
				</port>
			</output>
		</layer>
		<layer id="14" name="Constant_17459" type="Convert" version="opset1">
			<data destination_type="f32" />
			<rt_info>
				<attribute name="decompression" version="0" />
			</rt_info>
			<input>
				<port id="0" precision="FP16">
					<dim>1</dim>
					<dim>384</dim>
					<dim>1</dim>
					<dim>1</dim>
				</port>
			</input>
			<output>
				<port id="1" precision="FP32">
					<dim>1</dim>
					<dim>384</dim>
					<dim>1</dim>
					<dim>1</dim>
				</port>
			</output>
		</layer>
		<layer id="15" name="Constant_17454_compressed" type="Const" version="opset1">
			<data element_type="f16" shape="1, 384, 1, 1" offset="7680" size="768" />
			<output>
				<port id="0" precision="FP16">
					<dim>1</dim>
					<dim>384</dim>
					<dim>1</dim>
					<dim>1</dim>
				</port>
			</output>
		</layer>
		<layer id="16" name="Constant_17454" type="Convert" version="opset1">
			<data destination_type="f32" />
			<rt_info>
				<attribute name="decompression" version="0" />
			</rt_info>
			<input>
				<port id="0" precision="FP16">
					<dim>1</dim>
					<dim>384</dim>
					<dim>1</dim>
					<dim>1</dim>
				</port>
			</input>
			<output>
				<port id="1" precision="FP32">
					<dim>1</dim>
					<dim>384</dim>
					<dim>1</dim>
					<dim>1</dim>
				</port>
			</output>
		</layer>
		<layer id="17" name="Constant_17449_compressed" type="Const" version="opset1">
			<data element_type="f16" shape="1, 384, 1, 1" offset="8448" size="768" />
			<output>
				<port id="0" precision="FP16">
					<dim>1</dim>
					<dim>384</dim>
					<dim>1</dim>
					<dim>1</dim>
				</port>
			</output>
		</layer>
		<layer id="18" name="Constant_17449" type="Convert" version="opset1">
			<data destination_type="f32" />
			<rt_info>
				<attribute name="decompression" version="0" />
			</rt_info>
			<input>
				<port id="0" precision="FP16">
					<dim>1</dim>
					<dim>384</dim>
					<dim>1</dim>
					<dim>1</dim>
				</port>
			</input>
			<output>
				<port id="1" precision="FP32">
					<dim>1</dim>
					<dim>384</dim>
					<dim>1</dim>
					<dim>1</dim>
				</port>
			</output>
		</layer>
		<layer id="19" name="Constant_17444_compressed" type="Const" version="opset1">
			<data element_type="f16" shape="1, 384, 1, 1" offset="9216" size="768" />
			<output>
				<port id="0" precision="FP16">
					<dim>1</dim>
					<dim>384</dim>
					<dim>1</dim>
					<dim>1</dim>
				</port>
			</output>
		</layer>
		<layer id="20" name="Constant_17444" type="Convert" version="opset1">
			<data destination_type="f32" />
			<rt_info>
				<attribute name="decompression" version="0" />
			</rt_info>
			<input>
				<port id="0" precision="FP16">
					<dim>1</dim>
					<dim>384</dim>
					<dim>1</dim>
					<dim>1</dim>
				</port>
			</input>
			<output>
				<port id="1" precision="FP32">
					<dim>1</dim>
					<dim>384</dim>
					<dim>1</dim>
					<dim>1</dim>
				</port>
			</output>
		</layer>
		<layer id="21" name="Constant_17439_compressed" type="Const" version="opset1">
			<data element_type="f16" shape="1, 384, 1, 1" offset="9984" size="768" />
			<output>
				<port id="0" precision="FP16">
					<dim>1</dim>
					<dim>384</dim>
					<dim>1</dim>
					<dim>1</dim>
				</port>
			</output>
		</layer>
		<layer id="22" name="Constant_17439" type="Convert" version="opset1">
			<data destination_type="f32" />
			<rt_info>
				<attribute name="decompression" version="0" />
			</rt_info>
			<input>
				<port id="0" precision="FP16">
					<dim>1</dim>
					<dim>384</dim>
					<dim>1</dim>
					<dim>1</dim>
				</port>
			</input>
			<output>
				<port id="1" precision="FP32">
					<dim>1</dim>
					<dim>384</dim>
					<dim>1</dim>
					<dim>1</dim>
				</port>
			</output>
		</layer>
		<layer id="23" name="Constant_17434_compressed" type="Const" version="opset1">
			<data element_type="f16" shape="1, 384, 1, 1" offset="10752" size="768" />
			<output>
				<port id="0" precision="FP16">
					<dim>1</dim>
					<dim>384</dim>
					<dim>1</dim>
					<dim>1</dim>
				</port>
			</output>
		</layer>
		<layer id="24" name="Constant_17434" type="Convert" version="opset1">
			<data destination_type="f32" />
			<rt_info>
				<attribute name="decompression" version="0" />
			</rt_info>
			<input>
				<port id="0" precision="FP16">
					<dim>1</dim>
					<dim>384</dim>
					<dim>1</dim>
					<dim>1</dim>
				</port>
			</input>
			<output>
				<port id="1" precision="FP32">
					<dim>1</dim>
					<dim>384</dim>
					<dim>1</dim>
					<dim>1</dim>
				</port>
			</output>
		</layer>
		<layer id="25" name="Constant_17427_compressed" type="Const" version="opset1">
			<data element_type="f16" shape="1, 192, 1, 1" offset="11520" size="384" />
			<output>
				<port id="0" precision="FP16">
					<dim>1</dim>
					<dim>192</dim>
					<dim>1</dim>
					<dim>1</dim>
				</port>
			</output>
		</layer>
		<layer id="26" name="Constant_17427" type="Convert" version="opset1">
			<data destination_type="f32" />
			<rt_info>
				<attribute name="decompression" version="0" />
			</rt_info>
			<input>
				<port id="0" precision="FP16">
					<dim>1</dim>
					<dim>192</dim>
					<dim>1</dim>
					<dim>1</dim>
				</port>
			</input>
			<output>
				<port id="1" precision="FP32">
					<dim>1</dim>
					<dim>192</dim>
					<dim>1</dim>
					<dim>1</dim>
				</port>
			</output>
		</layer>
		<layer id="27" name="Constant_17422_compressed" type="Const" version="opset1">
			<data element_type="f16" shape="1, 192, 1, 1" offset="11904" size="384" />
			<output>
				<port id="0" precision="FP16">
					<dim>1</dim>
					<dim>192</dim>
					<dim>1</dim>
					<dim>1</dim>
				</port>
			</output>
		</layer>
		<layer id="28" name="Constant_17422" type="Convert" version="opset1">
			<data destination_type="f32" />
			<rt_info>
				<attribute name="decompression" version="0" />
			</rt_info>
			<input>
				<port id="0" precision="FP16">
					<dim>1</dim>
					<dim>192</dim>
					<dim>1</dim>
					<dim>1</dim>
				</port>
			</input>
			<output>
				<port id="1" precision="FP32">
					<dim>1</dim>
					<dim>192</dim>
					<dim>1</dim>
					<dim>1</dim>
				</port>
			</output>
		</layer>
		<layer id="29" name="Constant_17417_compressed" type="Const" version="opset1">
			<data element_type="f16" shape="1, 192, 1, 1" offset="12288" size="384" />
			<output>
				<port id="0" precision="FP16">
					<dim>1</dim>
					<dim>192</dim>
					<dim>1</dim>
					<dim>1</dim>
				</port>
			</output>
		</layer>
		<layer id="30" name="Constant_17417" type="Convert" version="opset1">
			<data destination_type="f32" />
			<rt_info>
				<attribute name="decompression" version="0" />
			</rt_info>
			<input>
				<port id="0" precision="FP16">
					<dim>1</dim>
					<dim>192</dim>
					<dim>1</dim>
					<dim>1</dim>
				</port>
			</input>
			<output>
				<port id="1" precision="FP32">
					<dim>1</dim>
					<dim>192</dim>
					<dim>1</dim>
					<dim>1</dim>
				</port>
			</output>
		</layer>
		<layer id="31" name="Constant_17410_compressed" type="Const" version="opset1">
			<data element_type="f16" shape="1, 96, 1, 1" offset="12672" size="192" />
			<output>
				<port id="0" precision="FP16">
					<dim>1</dim>
					<dim>96</dim>
					<dim>1</dim>
					<dim>1</dim>
				</port>
			</output>
		</layer>
		<layer id="32" name="Constant_17410" type="Convert" version="opset1">
			<data destination_type="f32" />
			<rt_info>
				<attribute name="decompression" version="0" />
			</rt_info>
			<input>
				<port id="0" precision="FP16">
					<dim>1</dim>
					<dim>96</dim>
					<dim>1</dim>
					<dim>1</dim>
				</port>
			</input>
			<output>
				<port id="1" precision="FP32">
					<dim>1</dim>
					<dim>96</dim>
					<dim>1</dim>
					<dim>1</dim>
				</port>
			</output>
		</layer>
		<layer id="33" name="Constant_17405_compressed" type="Const" version="opset1">
			<data element_type="f16" shape="1, 96, 1, 1" offset="12864" size="192" />
			<output>
				<port id="0" precision="FP16">
					<dim>1</dim>
					<dim>96</dim>
					<dim>1</dim>
					<dim>1</dim>
				</port>
			</output>
		</layer>
		<layer id="34" name="Constant_17405" type="Convert" version="opset1">
			<data destination_type="f32" />
			<rt_info>
				<attribute name="decompression" version="0" />
			</rt_info>
			<input>
				<port id="0" precision="FP16">
					<dim>1</dim>
					<dim>96</dim>
					<dim>1</dim>
					<dim>1</dim>
				</port>
			</input>
			<output>
				<port id="1" precision="FP32">
					<dim>1</dim>
					<dim>96</dim>
					<dim>1</dim>
					<dim>1</dim>
				</port>
			</output>
		</layer>
		<layer id="35" name="Constant_17400_compressed" type="Const" version="opset1">
			<data element_type="f16" shape="1, 96, 1, 1" offset="13056" size="192" />
			<output>
				<port id="0" precision="FP16">
					<dim>1</dim>
					<dim>96</dim>
					<dim>1</dim>
					<dim>1</dim>
				</port>
			</output>
		</layer>
		<layer id="36" name="Constant_17400" type="Convert" version="opset1">
			<data destination_type="f32" />
			<rt_info>
				<attribute name="decompression" version="0" />
			</rt_info>
			<input>
				<port id="0" precision="FP16">
					<dim>1</dim>
					<dim>96</dim>
					<dim>1</dim>
					<dim>1</dim>
				</port>
			</input>
			<output>
				<port id="1" precision="FP32">
					<dim>1</dim>
					<dim>96</dim>
					<dim>1</dim>
					<dim>1</dim>
				</port>
			</output>
		</layer>
		<layer id="37" name="self.feature_extractor.features.0.0.weight_compressed" type="Const" version="opset1">
			<data element_type="f16" shape="96, 3, 4, 4" offset="13248" size="9216" />
			<output>
				<port id="0" precision="FP16" names="209,self.feature_extractor.features.0.0.weight">
					<dim>96</dim>
					<dim>3</dim>
					<dim>4</dim>
					<dim>4</dim>
				</port>
			</output>
		</layer>
		<layer id="38" name="self.feature_extractor.features.0.0.weight" type="Convert" version="opset1">
			<data destination_type="f32" />
			<rt_info>
				<attribute name="decompression" version="0" />
			</rt_info>
			<input>
				<port id="0" precision="FP16">
					<dim>96</dim>
					<dim>3</dim>
					<dim>4</dim>
					<dim>4</dim>
				</port>
			</input>
			<output>
				<port id="1" precision="FP32">
					<dim>96</dim>
					<dim>3</dim>
					<dim>4</dim>
					<dim>4</dim>
				</port>
			</output>
		</layer>
		<layer id="39" name="Convolution_13295" type="Convolution" version="opset1">
			<data strides="4, 4" dilations="1, 1" pads_begin="0, 0" pads_end="0, 0" auto_pad="explicit" />
			<input>
				<port id="0" precision="FP32">
					<dim>-1</dim>
					<dim>3</dim>
					<dim>-1</dim>
					<dim>-1</dim>
				</port>
				<port id="1" precision="FP32">
					<dim>96</dim>
					<dim>3</dim>
					<dim>4</dim>
					<dim>4</dim>
				</port>
			</input>
			<output>
				<port id="2" precision="FP32">
					<dim>-1</dim>
					<dim>96</dim>
					<dim>-1</dim>
					<dim>-1</dim>
				</port>
			</output>
		</layer>
		<layer id="40" name="aten::conv2d/Reshape_compressed" type="Const" version="opset1">
			<data element_type="f16" shape="1, 96, 1, 1" offset="22464" size="192" />
			<output>
				<port id="0" precision="FP16">
					<dim>1</dim>
					<dim>96</dim>
					<dim>1</dim>
					<dim>1</dim>
				</port>
			</output>
		</layer>
		<layer id="41" name="aten::conv2d/Reshape" type="Convert" version="opset1">
			<data destination_type="f32" />
			<rt_info>
				<attribute name="decompression" version="0" />
			</rt_info>
			<input>
				<port id="0" precision="FP16">
					<dim>1</dim>
					<dim>96</dim>
					<dim>1</dim>
					<dim>1</dim>
				</port>
			</input>
			<output>
				<port id="1" precision="FP32">
					<dim>1</dim>
					<dim>96</dim>
					<dim>1</dim>
					<dim>1</dim>
				</port>
			</output>
		</layer>
		<layer id="42" name="aten::conv2d/Add" type="Add" version="opset1">
			<data auto_broadcast="numpy" />
			<input>
				<port id="0" precision="FP32">
					<dim>-1</dim>
					<dim>96</dim>
					<dim>-1</dim>
					<dim>-1</dim>
				</port>
				<port id="1" precision="FP32">
					<dim>1</dim>
					<dim>96</dim>
					<dim>1</dim>
					<dim>1</dim>
				</port>
			</input>
			<output>
				<port id="2" precision="FP32" names="210,input.19">
					<dim>-1</dim>
					<dim>96</dim>
					<dim>-1</dim>
					<dim>-1</dim>
				</port>
			</output>
		</layer>
		<layer id="43" name="self.feature_extractor.features.1.0.block.1.dims" type="Const" version="opset1">
			<data element_type="i32" shape="4" offset="22656" size="16" />
			<output>
				<port id="0" precision="I32" names="202,self.feature_extractor.features.1.0.block.1.dims">
					<dim>4</dim>
				</port>
			</output>
		</layer>
		<layer id="44" name="aten::permute/Transpose" type="Transpose" version="opset1">
			<input>
				<port id="0" precision="FP32">
					<dim>-1</dim>
					<dim>96</dim>
					<dim>-1</dim>
					<dim>-1</dim>
				</port>
				<port id="1" precision="I32">
					<dim>4</dim>
				</port>
			</input>
			<output>
				<port id="2" precision="FP32" names="211,x.6">
					<dim>-1</dim>
					<dim>-1</dim>
					<dim>-1</dim>
					<dim>96</dim>
				</port>
			</output>
		</layer>
		<layer id="45" name="aten::layer_norm/Constant" type="Const" version="opset1">
			<data element_type="i32" shape="1" offset="22672" size="4" />
			<output>
				<port id="0" precision="I32">
					<dim>1</dim>
				</port>
			</output>
		</layer>
		<layer id="46" name="aten::layer_norm/MVN" type="MVN" version="opset6">
			<data eps="9.9999999747524271e-07" normalize_variance="true" eps_mode="INSIDE_SQRT" />
			<input>
				<port id="0" precision="FP32">
					<dim>-1</dim>
					<dim>-1</dim>
					<dim>-1</dim>
					<dim>96</dim>
				</port>
				<port id="1" precision="I32">
					<dim>1</dim>
				</port>
			</input>
			<output>
				<port id="2" precision="FP32">
					<dim>-1</dim>
					<dim>-1</dim>
					<dim>-1</dim>
					<dim>96</dim>
				</port>
			</output>
		</layer>
		<layer id="47" name="Constant_17394_compressed" type="Const" version="opset1">
			<data element_type="f16" shape="1, 1, 1, 96" offset="22676" size="192" />
			<output>
				<port id="0" precision="FP16">
					<dim>1</dim>
					<dim>1</dim>
					<dim>1</dim>
					<dim>96</dim>
				</port>
			</output>
		</layer>
		<layer id="48" name="Constant_17394" type="Convert" version="opset1">
			<data destination_type="f32" />
			<rt_info>
				<attribute name="decompression" version="0" />
			</rt_info>
			<input>
				<port id="0" precision="FP16">
					<dim>1</dim>
					<dim>1</dim>
					<dim>1</dim>
					<dim>96</dim>
				</port>
			</input>
			<output>
				<port id="1" precision="FP32">
					<dim>1</dim>
					<dim>1</dim>
					<dim>1</dim>
					<dim>96</dim>
				</port>
			</output>
		</layer>
		<layer id="49" name="aten::layer_norm/Multiply" type="Multiply" version="opset1">
			<data auto_broadcast="numpy" />
			<input>
				<port id="0" precision="FP32">
					<dim>-1</dim>
					<dim>-1</dim>
					<dim>-1</dim>
					<dim>96</dim>
				</port>
				<port id="1" precision="FP32">
					<dim>1</dim>
					<dim>1</dim>
					<dim>1</dim>
					<dim>96</dim>
				</port>
			</input>
			<output>
				<port id="2" precision="FP32">
					<dim>-1</dim>
					<dim>-1</dim>
					<dim>-1</dim>
					<dim>96</dim>
				</port>
			</output>
		</layer>
		<layer id="50" name="Constant_17395_compressed" type="Const" version="opset1">
			<data element_type="f16" shape="1, 1, 1, 96" offset="22868" size="192" />
			<output>
				<port id="0" precision="FP16">
					<dim>1</dim>
					<dim>1</dim>
					<dim>1</dim>
					<dim>96</dim>
				</port>
			</output>
		</layer>
		<layer id="51" name="Constant_17395" type="Convert" version="opset1">
			<data destination_type="f32" />
			<rt_info>
				<attribute name="decompression" version="0" />
			</rt_info>
			<input>
				<port id="0" precision="FP16">
					<dim>1</dim>
					<dim>1</dim>
					<dim>1</dim>
					<dim>96</dim>
				</port>
			</input>
			<output>
				<port id="1" precision="FP32">
					<dim>1</dim>
					<dim>1</dim>
					<dim>1</dim>
					<dim>96</dim>
				</port>
			</output>
		</layer>
		<layer id="52" name="aten::layer_norm/Add" type="Add" version="opset1">
			<data auto_broadcast="numpy" />
			<input>
				<port id="0" precision="FP32">
					<dim>-1</dim>
					<dim>-1</dim>
					<dim>-1</dim>
					<dim>96</dim>
				</port>
				<port id="1" precision="FP32">
					<dim>1</dim>
					<dim>1</dim>
					<dim>1</dim>
					<dim>96</dim>
				</port>
			</input>
			<output>
				<port id="2" precision="FP32" names="212,x.10">
					<dim>-1</dim>
					<dim>-1</dim>
					<dim>-1</dim>
					<dim>96</dim>
				</port>
			</output>
		</layer>
		<layer id="53" name="self.feature_extractor.features.1.0.block.6.dims" type="Const" version="opset1">
			<data element_type="i32" shape="4" offset="23060" size="16" />
			<output>
				<port id="0" precision="I32" names="195,self.feature_extractor.features.1.0.block.6.dims">
					<dim>4</dim>
				</port>
			</output>
		</layer>
		<layer id="54" name="aten::permute/Transpose_1" type="Transpose" version="opset1">
			<input>
				<port id="0" precision="FP32">
					<dim>-1</dim>
					<dim>-1</dim>
					<dim>-1</dim>
					<dim>96</dim>
				</port>
				<port id="1" precision="I32">
					<dim>4</dim>
				</port>
			</input>
			<output>
				<port id="2" precision="FP32" names="213,input.39">
					<dim>-1</dim>
					<dim>96</dim>
					<dim>-1</dim>
					<dim>-1</dim>
				</port>
			</output>
		</layer>
		<layer id="55" name="Reshape_13334_compressed" type="Const" version="opset1">
			<data element_type="f16" shape="96, 1, 1, 7, 7" offset="23076" size="9408" />
			<output>
				<port id="0" precision="FP16">
					<dim>96</dim>
					<dim>1</dim>
					<dim>1</dim>
					<dim>7</dim>
					<dim>7</dim>
				</port>
			</output>
		</layer>
		<layer id="56" name="Reshape_13334" type="Convert" version="opset1">
			<data destination_type="f32" />
			<rt_info>
				<attribute name="decompression" version="0" />
			</rt_info>
			<input>
				<port id="0" precision="FP16">
					<dim>96</dim>
					<dim>1</dim>
					<dim>1</dim>
					<dim>7</dim>
					<dim>7</dim>
				</port>
			</input>
			<output>
				<port id="1" precision="FP32">
					<dim>96</dim>
					<dim>1</dim>
					<dim>1</dim>
					<dim>7</dim>
					<dim>7</dim>
				</port>
			</output>
		</layer>
		<layer id="57" name="GroupConvolution_13375" type="GroupConvolution" version="opset1">
			<data strides="1, 1" pads_begin="3, 3" pads_end="3, 3" dilations="1, 1" auto_pad="explicit" />
			<input>
				<port id="0" precision="FP32">
					<dim>-1</dim>
					<dim>96</dim>
					<dim>-1</dim>
					<dim>-1</dim>
				</port>
				<port id="1" precision="FP32">
					<dim>96</dim>
					<dim>1</dim>
					<dim>1</dim>
					<dim>7</dim>
					<dim>7</dim>
				</port>
			</input>
			<output>
				<port id="2" precision="FP32">
					<dim>-1</dim>
					<dim>96</dim>
					<dim>-1</dim>
					<dim>-1</dim>
				</port>
			</output>
		</layer>
		<layer id="58" name="aten::conv2d/Reshape_1_compressed" type="Const" version="opset1">
			<data element_type="f16" shape="1, 96, 1, 1" offset="32484" size="192" />
			<output>
				<port id="0" precision="FP16">
					<dim>1</dim>
					<dim>96</dim>
					<dim>1</dim>
					<dim>1</dim>
				</port>
			</output>
		</layer>
		<layer id="59" name="aten::conv2d/Reshape_1" type="Convert" version="opset1">
			<data destination_type="f32" />
			<rt_info>
				<attribute name="decompression" version="0" />
			</rt_info>
			<input>
				<port id="0" precision="FP16">
					<dim>1</dim>
					<dim>96</dim>
					<dim>1</dim>
					<dim>1</dim>
				</port>
			</input>
			<output>
				<port id="1" precision="FP32">
					<dim>1</dim>
					<dim>96</dim>
					<dim>1</dim>
					<dim>1</dim>
				</port>
			</output>
		</layer>
		<layer id="60" name="aten::conv2d/Add_1" type="Add" version="opset1">
			<data auto_broadcast="numpy" />
			<input>
				<port id="0" precision="FP32">
					<dim>-1</dim>
					<dim>96</dim>
					<dim>-1</dim>
					<dim>-1</dim>
				</port>
				<port id="1" precision="FP32">
					<dim>1</dim>
					<dim>96</dim>
					<dim>1</dim>
					<dim>1</dim>
				</port>
			</input>
			<output>
				<port id="2" precision="FP32" names="214,input.49">
					<dim>-1</dim>
					<dim>96</dim>
					<dim>-1</dim>
					<dim>-1</dim>
				</port>
			</output>
		</layer>
		<layer id="61" name="aten::permute/Transpose_2" type="Transpose" version="opset1">
			<input>
				<port id="0" precision="FP32">
					<dim>-1</dim>
					<dim>96</dim>
					<dim>-1</dim>
					<dim>-1</dim>
				</port>
				<port id="1" precision="I32">
					<dim>4</dim>
				</port>
			</input>
			<output>
				<port id="2" precision="FP32" names="215,input.51">
					<dim>-1</dim>
					<dim>-1</dim>
					<dim>-1</dim>
					<dim>96</dim>
				</port>
			</output>
		</layer>
		<layer id="62" name="aten::layer_norm/Constant_1" type="Const" version="opset1">
			<data element_type="i32" shape="1" offset="22672" size="4" />
			<output>
				<port id="0" precision="I32">
					<dim>1</dim>
				</port>
			</output>
		</layer>
		<layer id="63" name="aten::layer_norm/MVN_1" type="MVN" version="opset6">
			<data eps="9.9999999747524271e-07" normalize_variance="true" eps_mode="INSIDE_SQRT" />
			<input>
				<port id="0" precision="FP32">
					<dim>-1</dim>
					<dim>-1</dim>
					<dim>-1</dim>
					<dim>96</dim>
				</port>
				<port id="1" precision="I32">
					<dim>1</dim>
				</port>
			</input>
			<output>
				<port id="2" precision="FP32">
					<dim>-1</dim>
					<dim>-1</dim>
					<dim>-1</dim>
					<dim>96</dim>
				</port>
			</output>
		</layer>
		<layer id="64" name="Constant_17396_compressed" type="Const" version="opset1">
			<data element_type="f16" shape="1, 1, 1, 96" offset="32676" size="192" />
			<output>
				<port id="0" precision="FP16">
					<dim>1</dim>
					<dim>1</dim>
					<dim>1</dim>
					<dim>96</dim>
				</port>
			</output>
		</layer>
		<layer id="65" name="Constant_17396" type="Convert" version="opset1">
			<data destination_type="f32" />
			<rt_info>
				<attribute name="decompression" version="0" />
			</rt_info>
			<input>
				<port id="0" precision="FP16">
					<dim>1</dim>
					<dim>1</dim>
					<dim>1</dim>
					<dim>96</dim>
				</port>
			</input>
			<output>
				<port id="1" precision="FP32">
					<dim>1</dim>
					<dim>1</dim>
					<dim>1</dim>
					<dim>96</dim>
				</port>
			</output>
		</layer>
		<layer id="66" name="aten::layer_norm/Multiply_1" type="Multiply" version="opset1">
			<data auto_broadcast="numpy" />
			<input>
				<port id="0" precision="FP32">
					<dim>-1</dim>
					<dim>-1</dim>
					<dim>-1</dim>
					<dim>96</dim>
				</port>
				<port id="1" precision="FP32">
					<dim>1</dim>
					<dim>1</dim>
					<dim>1</dim>
					<dim>96</dim>
				</port>
			</input>
			<output>
				<port id="2" precision="FP32">
					<dim>-1</dim>
					<dim>-1</dim>
					<dim>-1</dim>
					<dim>96</dim>
				</port>
			</output>
		</layer>
		<layer id="67" name="Constant_17397_compressed" type="Const" version="opset1">
			<data element_type="f16" shape="1, 1, 1, 96" offset="32868" size="192" />
			<output>
				<port id="0" precision="FP16">
					<dim>1</dim>
					<dim>1</dim>
					<dim>1</dim>
					<dim>96</dim>
				</port>
			</output>
		</layer>
		<layer id="68" name="Constant_17397" type="Convert" version="opset1">
			<data destination_type="f32" />
			<rt_info>
				<attribute name="decompression" version="0" />
			</rt_info>
			<input>
				<port id="0" precision="FP16">
					<dim>1</dim>
					<dim>1</dim>
					<dim>1</dim>
					<dim>96</dim>
				</port>
			</input>
			<output>
				<port id="1" precision="FP32">
					<dim>1</dim>
					<dim>1</dim>
					<dim>1</dim>
					<dim>96</dim>
				</port>
			</output>
		</layer>
		<layer id="69" name="aten::layer_norm/Add_1" type="Add" version="opset1">
			<data auto_broadcast="numpy" />
			<input>
				<port id="0" precision="FP32">
					<dim>-1</dim>
					<dim>-1</dim>
					<dim>-1</dim>
					<dim>96</dim>
				</port>
				<port id="1" precision="FP32">
					<dim>1</dim>
					<dim>1</dim>
					<dim>1</dim>
					<dim>96</dim>
				</port>
			</input>
			<output>
				<port id="2" precision="FP32" names="216,input.53">
					<dim>-1</dim>
					<dim>-1</dim>
					<dim>-1</dim>
					<dim>96</dim>
				</port>
			</output>
		</layer>
		<layer id="70" name="self.feature_extractor.features.1.0.block.3.weight_compressed" type="Const" version="opset1">
			<data element_type="f16" shape="384, 96" offset="33060" size="73728" />
			<output>
				<port id="0" precision="FP16" names="199,self.feature_extractor.features.1.0.block.3.weight">
					<dim>384</dim>
					<dim>96</dim>
				</port>
			</output>
		</layer>
		<layer id="71" name="self.feature_extractor.features.1.0.block.3.weight" type="Convert" version="opset1">
			<data destination_type="f32" />
			<rt_info>
				<attribute name="decompression" version="0" />
			</rt_info>
			<input>
				<port id="0" precision="FP16">
					<dim>384</dim>
					<dim>96</dim>
				</port>
			</input>
			<output>
				<port id="1" precision="FP32">
					<dim>384</dim>
					<dim>96</dim>
				</port>
			</output>
		</layer>
		<layer id="72" name="aten::linear/MatMul" type="MatMul" version="opset1">
			<data transpose_a="false" transpose_b="true" />
			<input>
				<port id="0" precision="FP32">
					<dim>-1</dim>
					<dim>-1</dim>
					<dim>-1</dim>
					<dim>96</dim>
				</port>
				<port id="1" precision="FP32">
					<dim>384</dim>
					<dim>96</dim>
				</port>
			</input>
			<output>
				<port id="2" precision="FP32">
					<dim>-1</dim>
					<dim>-1</dim>
					<dim>-1</dim>
					<dim>384</dim>
				</port>
			</output>
		</layer>
		<layer id="73" name="Constant_17398_compressed" type="Const" version="opset1">
			<data element_type="f16" shape="1, 1, 1, 384" offset="106788" size="768" />
			<output>
				<port id="0" precision="FP16">
					<dim>1</dim>
					<dim>1</dim>
					<dim>1</dim>
					<dim>384</dim>
				</port>
			</output>
		</layer>
		<layer id="74" name="Constant_17398" type="Convert" version="opset1">
			<data destination_type="f32" />
			<rt_info>
				<attribute name="decompression" version="0" />
			</rt_info>
			<input>
				<port id="0" precision="FP16">
					<dim>1</dim>
					<dim>1</dim>
					<dim>1</dim>
					<dim>384</dim>
				</port>
			</input>
			<output>
				<port id="1" precision="FP32">
					<dim>1</dim>
					<dim>1</dim>
					<dim>1</dim>
					<dim>384</dim>
				</port>
			</output>
		</layer>
		<layer id="75" name="aten::linear/Add" type="Add" version="opset1">
			<data auto_broadcast="numpy" />
			<input>
				<port id="0" precision="FP32">
					<dim>-1</dim>
					<dim>-1</dim>
					<dim>-1</dim>
					<dim>384</dim>
				</port>
				<port id="1" precision="FP32">
					<dim>1</dim>
					<dim>1</dim>
					<dim>1</dim>
					<dim>384</dim>
				</port>
			</input>
			<output>
				<port id="2" precision="FP32" names="217,input.55">
					<dim>-1</dim>
					<dim>-1</dim>
					<dim>-1</dim>
					<dim>384</dim>
				</port>
			</output>
		</layer>
		<layer id="76" name="aten::gelu/Gelu" type="Gelu" version="opset7">
			<data approximation_mode="ERF" />
			<input>
				<port id="0" precision="FP32">
					<dim>-1</dim>
					<dim>-1</dim>
					<dim>-1</dim>
					<dim>384</dim>
				</port>
			</input>
			<output>
				<port id="1" precision="FP32" names="218,input.57">
					<dim>-1</dim>
					<dim>-1</dim>
					<dim>-1</dim>
					<dim>384</dim>
				</port>
			</output>
		</layer>
		<layer id="77" name="self.feature_extractor.features.1.0.block.5.weight_compressed" type="Const" version="opset1">
			<data element_type="f16" shape="96, 384" offset="107556" size="73728" />
			<output>
				<port id="0" precision="FP16" names="197,self.feature_extractor.features.1.0.block.5.weight">
					<dim>96</dim>
					<dim>384</dim>
				</port>
			</output>
		</layer>
		<layer id="78" name="self.feature_extractor.features.1.0.block.5.weight" type="Convert" version="opset1">
			<data destination_type="f32" />
			<rt_info>
				<attribute name="decompression" version="0" />
			</rt_info>
			<input>
				<port id="0" precision="FP16">
					<dim>96</dim>
					<dim>384</dim>
				</port>
			</input>
			<output>
				<port id="1" precision="FP32">
					<dim>96</dim>
					<dim>384</dim>
				</port>
			</output>
		</layer>
		<layer id="79" name="aten::linear/MatMul_1" type="MatMul" version="opset1">
			<data transpose_a="false" transpose_b="true" />
			<input>
				<port id="0" precision="FP32">
					<dim>-1</dim>
					<dim>-1</dim>
					<dim>-1</dim>
					<dim>384</dim>
				</port>
				<port id="1" precision="FP32">
					<dim>96</dim>
					<dim>384</dim>
				</port>
			</input>
			<output>
				<port id="2" precision="FP32">
					<dim>-1</dim>
					<dim>-1</dim>
					<dim>-1</dim>
					<dim>96</dim>
				</port>
			</output>
		</layer>
		<layer id="80" name="Constant_17399_compressed" type="Const" version="opset1">
			<data element_type="f16" shape="1, 1, 1, 96" offset="181284" size="192" />
			<output>
				<port id="0" precision="FP16">
					<dim>1</dim>
					<dim>1</dim>
					<dim>1</dim>
					<dim>96</dim>
				</port>
			</output>
		</layer>
		<layer id="81" name="Constant_17399" type="Convert" version="opset1">
			<data destination_type="f32" />
			<rt_info>
				<attribute name="decompression" version="0" />
			</rt_info>
			<input>
				<port id="0" precision="FP16">
					<dim>1</dim>
					<dim>1</dim>
					<dim>1</dim>
					<dim>96</dim>
				</port>
			</input>
			<output>
				<port id="1" precision="FP32">
					<dim>1</dim>
					<dim>1</dim>
					<dim>1</dim>
					<dim>96</dim>
				</port>
			</output>
		</layer>
		<layer id="82" name="aten::linear/Add_1" type="Add" version="opset1">
			<data auto_broadcast="numpy" />
			<input>
				<port id="0" precision="FP32">
					<dim>-1</dim>
					<dim>-1</dim>
					<dim>-1</dim>
					<dim>96</dim>
				</port>
				<port id="1" precision="FP32">
					<dim>1</dim>
					<dim>1</dim>
					<dim>1</dim>
					<dim>96</dim>
				</port>
			</input>
			<output>
				<port id="2" precision="FP32" names="219,input.59">
					<dim>-1</dim>
					<dim>-1</dim>
					<dim>-1</dim>
					<dim>96</dim>
				</port>
			</output>
		</layer>
		<layer id="83" name="aten::permute/Transpose_3" type="Transpose" version="opset1">
			<input>
				<port id="0" precision="FP32">
					<dim>-1</dim>
					<dim>-1</dim>
					<dim>-1</dim>
					<dim>96</dim>
				</port>
				<port id="1" precision="I32">
					<dim>4</dim>
				</port>
			</input>
			<output>
				<port id="2" precision="FP32" names="220,input.61">
					<dim>-1</dim>
					<dim>96</dim>
					<dim>-1</dim>
					<dim>-1</dim>
				</port>
			</output>
		</layer>
		<layer id="84" name="aten::mul/Multiply" type="Multiply" version="opset1">
			<data auto_broadcast="numpy" />
			<input>
				<port id="0" precision="FP32">
					<dim>1</dim>
					<dim>96</dim>
					<dim>1</dim>
					<dim>1</dim>
				</port>
				<port id="1" precision="FP32">
					<dim>-1</dim>
					<dim>96</dim>
					<dim>-1</dim>
					<dim>-1</dim>
				</port>
			</input>
			<output>
				<port id="2" precision="FP32" names="221_1">
					<dim>-1</dim>
					<dim>96</dim>
					<dim>-1</dim>
					<dim>-1</dim>
				</port>
			</output>
		</layer>
		<layer id="85" name="aten::add_/Add" type="Add" version="opset1">
			<data auto_broadcast="numpy" />
			<input>
				<port id="0" precision="FP32">
					<dim>-1</dim>
					<dim>96</dim>
					<dim>-1</dim>
					<dim>-1</dim>
				</port>
				<port id="1" precision="FP32">
					<dim>-1</dim>
					<dim>96</dim>
					<dim>-1</dim>
					<dim>-1</dim>
				</port>
			</input>
			<output>
				<port id="2" precision="FP32" names="221,result.3">
					<dim>-1</dim>
					<dim>96</dim>
					<dim>-1</dim>
					<dim>-1</dim>
				</port>
			</output>
		</layer>
		<layer id="86" name="Reshape_13423_compressed" type="Const" version="opset1">
			<data element_type="f16" shape="96, 1, 1, 7, 7" offset="181476" size="9408" />
			<output>
				<port id="0" precision="FP16">
					<dim>96</dim>
					<dim>1</dim>
					<dim>1</dim>
					<dim>7</dim>
					<dim>7</dim>
				</port>
			</output>
		</layer>
		<layer id="87" name="Reshape_13423" type="Convert" version="opset1">
			<data destination_type="f32" />
			<rt_info>
				<attribute name="decompression" version="0" />
			</rt_info>
			<input>
				<port id="0" precision="FP16">
					<dim>96</dim>
					<dim>1</dim>
					<dim>1</dim>
					<dim>7</dim>
					<dim>7</dim>
				</port>
			</input>
			<output>
				<port id="1" precision="FP32">
					<dim>96</dim>
					<dim>1</dim>
					<dim>1</dim>
					<dim>7</dim>
					<dim>7</dim>
				</port>
			</output>
		</layer>
		<layer id="88" name="GroupConvolution_13464" type="GroupConvolution" version="opset1">
			<data strides="1, 1" pads_begin="3, 3" pads_end="3, 3" dilations="1, 1" auto_pad="explicit" />
			<input>
				<port id="0" precision="FP32">
					<dim>-1</dim>
					<dim>96</dim>
					<dim>-1</dim>
					<dim>-1</dim>
				</port>
				<port id="1" precision="FP32">
					<dim>96</dim>
					<dim>1</dim>
					<dim>1</dim>
					<dim>7</dim>
					<dim>7</dim>
				</port>
			</input>
			<output>
				<port id="2" precision="FP32">
					<dim>-1</dim>
					<dim>96</dim>
					<dim>-1</dim>
					<dim>-1</dim>
				</port>
			</output>
		</layer>
		<layer id="89" name="aten::conv2d/Reshape_2_compressed" type="Const" version="opset1">
			<data element_type="f16" shape="1, 96, 1, 1" offset="190884" size="192" />
			<output>
				<port id="0" precision="FP16">
					<dim>1</dim>
					<dim>96</dim>
					<dim>1</dim>
					<dim>1</dim>
				</port>
			</output>
		</layer>
		<layer id="90" name="aten::conv2d/Reshape_2" type="Convert" version="opset1">
			<data destination_type="f32" />
			<rt_info>
				<attribute name="decompression" version="0" />
			</rt_info>
			<input>
				<port id="0" precision="FP16">
					<dim>1</dim>
					<dim>96</dim>
					<dim>1</dim>
					<dim>1</dim>
				</port>
			</input>
			<output>
				<port id="1" precision="FP32">
					<dim>1</dim>
					<dim>96</dim>
					<dim>1</dim>
					<dim>1</dim>
				</port>
			</output>
		</layer>
		<layer id="91" name="aten::conv2d/Add_2" type="Add" version="opset1">
			<data auto_broadcast="numpy" />
			<input>
				<port id="0" precision="FP32">
					<dim>-1</dim>
					<dim>96</dim>
					<dim>-1</dim>
					<dim>-1</dim>
				</port>
				<port id="1" precision="FP32">
					<dim>1</dim>
					<dim>96</dim>
					<dim>1</dim>
					<dim>1</dim>
				</port>
			</input>
			<output>
				<port id="2" precision="FP32" names="223,input.65">
					<dim>-1</dim>
					<dim>96</dim>
					<dim>-1</dim>
					<dim>-1</dim>
				</port>
			</output>
		</layer>
		<layer id="92" name="aten::permute/Transpose_4" type="Transpose" version="opset1">
			<input>
				<port id="0" precision="FP32">
					<dim>-1</dim>
					<dim>96</dim>
					<dim>-1</dim>
					<dim>-1</dim>
				</port>
				<port id="1" precision="I32">
					<dim>4</dim>
				</port>
			</input>
			<output>
				<port id="2" precision="FP32" names="224,input.67">
					<dim>-1</dim>
					<dim>-1</dim>
					<dim>-1</dim>
					<dim>96</dim>
				</port>
			</output>
		</layer>
		<layer id="93" name="aten::layer_norm/Constant_2" type="Const" version="opset1">
			<data element_type="i32" shape="1" offset="22672" size="4" />
			<output>
				<port id="0" precision="I32">
					<dim>1</dim>
				</port>
			</output>
		</layer>
		<layer id="94" name="aten::layer_norm/MVN_2" type="MVN" version="opset6">
			<data eps="9.9999999747524271e-07" normalize_variance="true" eps_mode="INSIDE_SQRT" />
			<input>
				<port id="0" precision="FP32">
					<dim>-1</dim>
					<dim>-1</dim>
					<dim>-1</dim>
					<dim>96</dim>
				</port>
				<port id="1" precision="I32">
					<dim>1</dim>
				</port>
			</input>
			<output>
				<port id="2" precision="FP32">
					<dim>-1</dim>
					<dim>-1</dim>
					<dim>-1</dim>
					<dim>96</dim>
				</port>
			</output>
		</layer>
		<layer id="95" name="Constant_17401_compressed" type="Const" version="opset1">
			<data element_type="f16" shape="1, 1, 1, 96" offset="191076" size="192" />
			<output>
				<port id="0" precision="FP16">
					<dim>1</dim>
					<dim>1</dim>
					<dim>1</dim>
					<dim>96</dim>
				</port>
			</output>
		</layer>
		<layer id="96" name="Constant_17401" type="Convert" version="opset1">
			<data destination_type="f32" />
			<rt_info>
				<attribute name="decompression" version="0" />
			</rt_info>
			<input>
				<port id="0" precision="FP16">
					<dim>1</dim>
					<dim>1</dim>
					<dim>1</dim>
					<dim>96</dim>
				</port>
			</input>
			<output>
				<port id="1" precision="FP32">
					<dim>1</dim>
					<dim>1</dim>
					<dim>1</dim>
					<dim>96</dim>
				</port>
			</output>
		</layer>
		<layer id="97" name="aten::layer_norm/Multiply_2" type="Multiply" version="opset1">
			<data auto_broadcast="numpy" />
			<input>
				<port id="0" precision="FP32">
					<dim>-1</dim>
					<dim>-1</dim>
					<dim>-1</dim>
					<dim>96</dim>
				</port>
				<port id="1" precision="FP32">
					<dim>1</dim>
					<dim>1</dim>
					<dim>1</dim>
					<dim>96</dim>
				</port>
			</input>
			<output>
				<port id="2" precision="FP32">
					<dim>-1</dim>
					<dim>-1</dim>
					<dim>-1</dim>
					<dim>96</dim>
				</port>
			</output>
		</layer>
		<layer id="98" name="Constant_17402_compressed" type="Const" version="opset1">
			<data element_type="f16" shape="1, 1, 1, 96" offset="191268" size="192" />
			<output>
				<port id="0" precision="FP16">
					<dim>1</dim>
					<dim>1</dim>
					<dim>1</dim>
					<dim>96</dim>
				</port>
			</output>
		</layer>
		<layer id="99" name="Constant_17402" type="Convert" version="opset1">
			<data destination_type="f32" />
			<rt_info>
				<attribute name="decompression" version="0" />
			</rt_info>
			<input>
				<port id="0" precision="FP16">
					<dim>1</dim>
					<dim>1</dim>
					<dim>1</dim>
					<dim>96</dim>
				</port>
			</input>
			<output>
				<port id="1" precision="FP32">
					<dim>1</dim>
					<dim>1</dim>
					<dim>1</dim>
					<dim>96</dim>
				</port>
			</output>
		</layer>
		<layer id="100" name="aten::layer_norm/Add_2" type="Add" version="opset1">
			<data auto_broadcast="numpy" />
			<input>
				<port id="0" precision="FP32">
					<dim>-1</dim>
					<dim>-1</dim>
					<dim>-1</dim>
					<dim>96</dim>
				</port>
				<port id="1" precision="FP32">
					<dim>1</dim>
					<dim>1</dim>
					<dim>1</dim>
					<dim>96</dim>
				</port>
			</input>
			<output>
				<port id="2" precision="FP32" names="225,input.69">
					<dim>-1</dim>
					<dim>-1</dim>
					<dim>-1</dim>
					<dim>96</dim>
				</port>
			</output>
		</layer>
		<layer id="101" name="self.feature_extractor.features.1.1.block.3.weight_compressed" type="Const" version="opset1">
			<data element_type="f16" shape="384, 96" offset="191460" size="73728" />
			<output>
				<port id="0" precision="FP16" names="188,self.feature_extractor.features.1.1.block.3.weight">
					<dim>384</dim>
					<dim>96</dim>
				</port>
			</output>
		</layer>
		<layer id="102" name="self.feature_extractor.features.1.1.block.3.weight" type="Convert" version="opset1">
			<data destination_type="f32" />
			<rt_info>
				<attribute name="decompression" version="0" />
			</rt_info>
			<input>
				<port id="0" precision="FP16">
					<dim>384</dim>
					<dim>96</dim>
				</port>
			</input>
			<output>
				<port id="1" precision="FP32">
					<dim>384</dim>
					<dim>96</dim>
				</port>
			</output>
		</layer>
		<layer id="103" name="aten::linear/MatMul_2" type="MatMul" version="opset1">
			<data transpose_a="false" transpose_b="true" />
			<input>
				<port id="0" precision="FP32">
					<dim>-1</dim>
					<dim>-1</dim>
					<dim>-1</dim>
					<dim>96</dim>
				</port>
				<port id="1" precision="FP32">
					<dim>384</dim>
					<dim>96</dim>
				</port>
			</input>
			<output>
				<port id="2" precision="FP32">
					<dim>-1</dim>
					<dim>-1</dim>
					<dim>-1</dim>
					<dim>384</dim>
				</port>
			</output>
		</layer>
		<layer id="104" name="Constant_17403_compressed" type="Const" version="opset1">
			<data element_type="f16" shape="1, 1, 1, 384" offset="265188" size="768" />
			<output>
				<port id="0" precision="FP16">
					<dim>1</dim>
					<dim>1</dim>
					<dim>1</dim>
					<dim>384</dim>
				</port>
			</output>
		</layer>
		<layer id="105" name="Constant_17403" type="Convert" version="opset1">
			<data destination_type="f32" />
			<rt_info>
				<attribute name="decompression" version="0" />
			</rt_info>
			<input>
				<port id="0" precision="FP16">
					<dim>1</dim>
					<dim>1</dim>
					<dim>1</dim>
					<dim>384</dim>
				</port>
			</input>
			<output>
				<port id="1" precision="FP32">
					<dim>1</dim>
					<dim>1</dim>
					<dim>1</dim>
					<dim>384</dim>
				</port>
			</output>
		</layer>
		<layer id="106" name="aten::linear/Add_2" type="Add" version="opset1">
			<data auto_broadcast="numpy" />
			<input>
				<port id="0" precision="FP32">
					<dim>-1</dim>
					<dim>-1</dim>
					<dim>-1</dim>
					<dim>384</dim>
				</port>
				<port id="1" precision="FP32">
					<dim>1</dim>
					<dim>1</dim>
					<dim>1</dim>
					<dim>384</dim>
				</port>
			</input>
			<output>
				<port id="2" precision="FP32" names="226,input.71">
					<dim>-1</dim>
					<dim>-1</dim>
					<dim>-1</dim>
					<dim>384</dim>
				</port>
			</output>
		</layer>
		<layer id="107" name="aten::gelu/Gelu_1" type="Gelu" version="opset7">
			<data approximation_mode="ERF" />
			<input>
				<port id="0" precision="FP32">
					<dim>-1</dim>
					<dim>-1</dim>
					<dim>-1</dim>
					<dim>384</dim>
				</port>
			</input>
			<output>
				<port id="1" precision="FP32" names="227,input.73">
					<dim>-1</dim>
					<dim>-1</dim>
					<dim>-1</dim>
					<dim>384</dim>
				</port>
			</output>
		</layer>
		<layer id="108" name="self.feature_extractor.features.1.1.block.5.weight_compressed" type="Const" version="opset1">
			<data element_type="f16" shape="96, 384" offset="265956" size="73728" />
			<output>
				<port id="0" precision="FP16" names="186,self.feature_extractor.features.1.1.block.5.weight">
					<dim>96</dim>
					<dim>384</dim>
				</port>
			</output>
		</layer>
		<layer id="109" name="self.feature_extractor.features.1.1.block.5.weight" type="Convert" version="opset1">
			<data destination_type="f32" />
			<rt_info>
				<attribute name="decompression" version="0" />
			</rt_info>
			<input>
				<port id="0" precision="FP16">
					<dim>96</dim>
					<dim>384</dim>
				</port>
			</input>
			<output>
				<port id="1" precision="FP32">
					<dim>96</dim>
					<dim>384</dim>
				</port>
			</output>
		</layer>
		<layer id="110" name="aten::linear/MatMul_3" type="MatMul" version="opset1">
			<data transpose_a="false" transpose_b="true" />
			<input>
				<port id="0" precision="FP32">
					<dim>-1</dim>
					<dim>-1</dim>
					<dim>-1</dim>
					<dim>384</dim>
				</port>
				<port id="1" precision="FP32">
					<dim>96</dim>
					<dim>384</dim>
				</port>
			</input>
			<output>
				<port id="2" precision="FP32">
					<dim>-1</dim>
					<dim>-1</dim>
					<dim>-1</dim>
					<dim>96</dim>
				</port>
			</output>
		</layer>
		<layer id="111" name="Constant_17404_compressed" type="Const" version="opset1">
			<data element_type="f16" shape="1, 1, 1, 96" offset="339684" size="192" />
			<output>
				<port id="0" precision="FP16">
					<dim>1</dim>
					<dim>1</dim>
					<dim>1</dim>
					<dim>96</dim>
				</port>
			</output>
		</layer>
		<layer id="112" name="Constant_17404" type="Convert" version="opset1">
			<data destination_type="f32" />
			<rt_info>
				<attribute name="decompression" version="0" />
			</rt_info>
			<input>
				<port id="0" precision="FP16">
					<dim>1</dim>
					<dim>1</dim>
					<dim>1</dim>
					<dim>96</dim>
				</port>
			</input>
			<output>
				<port id="1" precision="FP32">
					<dim>1</dim>
					<dim>1</dim>
					<dim>1</dim>
					<dim>96</dim>
				</port>
			</output>
		</layer>
		<layer id="113" name="aten::linear/Add_3" type="Add" version="opset1">
			<data auto_broadcast="numpy" />
			<input>
				<port id="0" precision="FP32">
					<dim>-1</dim>
					<dim>-1</dim>
					<dim>-1</dim>
					<dim>96</dim>
				</port>
				<port id="1" precision="FP32">
					<dim>1</dim>
					<dim>1</dim>
					<dim>1</dim>
					<dim>96</dim>
				</port>
			</input>
			<output>
				<port id="2" precision="FP32" names="228,input.75">
					<dim>-1</dim>
					<dim>-1</dim>
					<dim>-1</dim>
					<dim>96</dim>
				</port>
			</output>
		</layer>
		<layer id="114" name="aten::permute/Transpose_5" type="Transpose" version="opset1">
			<input>
				<port id="0" precision="FP32">
					<dim>-1</dim>
					<dim>-1</dim>
					<dim>-1</dim>
					<dim>96</dim>
				</port>
				<port id="1" precision="I32">
					<dim>4</dim>
				</port>
			</input>
			<output>
				<port id="2" precision="FP32" names="229,input.77">
					<dim>-1</dim>
					<dim>96</dim>
					<dim>-1</dim>
					<dim>-1</dim>
				</port>
			</output>
		</layer>
		<layer id="115" name="aten::mul/Multiply_1" type="Multiply" version="opset1">
			<data auto_broadcast="numpy" />
			<input>
				<port id="0" precision="FP32">
					<dim>1</dim>
					<dim>96</dim>
					<dim>1</dim>
					<dim>1</dim>
				</port>
				<port id="1" precision="FP32">
					<dim>-1</dim>
					<dim>96</dim>
					<dim>-1</dim>
					<dim>-1</dim>
				</port>
			</input>
			<output>
				<port id="2" precision="FP32" names="230_1">
					<dim>-1</dim>
					<dim>96</dim>
					<dim>-1</dim>
					<dim>-1</dim>
				</port>
			</output>
		</layer>
		<layer id="116" name="aten::add_/Add_1" type="Add" version="opset1">
			<data auto_broadcast="numpy" />
			<input>
				<port id="0" precision="FP32">
					<dim>-1</dim>
					<dim>96</dim>
					<dim>-1</dim>
					<dim>-1</dim>
				</port>
				<port id="1" precision="FP32">
					<dim>-1</dim>
					<dim>96</dim>
					<dim>-1</dim>
					<dim>-1</dim>
				</port>
			</input>
			<output>
				<port id="2" precision="FP32" names="230,result.9">
					<dim>-1</dim>
					<dim>96</dim>
					<dim>-1</dim>
					<dim>-1</dim>
				</port>
			</output>
		</layer>
		<layer id="117" name="Reshape_13512_compressed" type="Const" version="opset1">
			<data element_type="f16" shape="96, 1, 1, 7, 7" offset="339876" size="9408" />
			<output>
				<port id="0" precision="FP16">
					<dim>96</dim>
					<dim>1</dim>
					<dim>1</dim>
					<dim>7</dim>
					<dim>7</dim>
				</port>
			</output>
		</layer>
		<layer id="118" name="Reshape_13512" type="Convert" version="opset1">
			<data destination_type="f32" />
			<rt_info>
				<attribute name="decompression" version="0" />
			</rt_info>
			<input>
				<port id="0" precision="FP16">
					<dim>96</dim>
					<dim>1</dim>
					<dim>1</dim>
					<dim>7</dim>
					<dim>7</dim>
				</port>
			</input>
			<output>
				<port id="1" precision="FP32">
					<dim>96</dim>
					<dim>1</dim>
					<dim>1</dim>
					<dim>7</dim>
					<dim>7</dim>
				</port>
			</output>
		</layer>
		<layer id="119" name="GroupConvolution_13553" type="GroupConvolution" version="opset1">
			<data strides="1, 1" pads_begin="3, 3" pads_end="3, 3" dilations="1, 1" auto_pad="explicit" />
			<input>
				<port id="0" precision="FP32">
					<dim>-1</dim>
					<dim>96</dim>
					<dim>-1</dim>
					<dim>-1</dim>
				</port>
				<port id="1" precision="FP32">
					<dim>96</dim>
					<dim>1</dim>
					<dim>1</dim>
					<dim>7</dim>
					<dim>7</dim>
				</port>
			</input>
			<output>
				<port id="2" precision="FP32">
					<dim>-1</dim>
					<dim>96</dim>
					<dim>-1</dim>
					<dim>-1</dim>
				</port>
			</output>
		</layer>
		<layer id="120" name="aten::conv2d/Reshape_3_compressed" type="Const" version="opset1">
			<data element_type="f16" shape="1, 96, 1, 1" offset="349284" size="192" />
			<output>
				<port id="0" precision="FP16">
					<dim>1</dim>
					<dim>96</dim>
					<dim>1</dim>
					<dim>1</dim>
				</port>
			</output>
		</layer>
		<layer id="121" name="aten::conv2d/Reshape_3" type="Convert" version="opset1">
			<data destination_type="f32" />
			<rt_info>
				<attribute name="decompression" version="0" />
			</rt_info>
			<input>
				<port id="0" precision="FP16">
					<dim>1</dim>
					<dim>96</dim>
					<dim>1</dim>
					<dim>1</dim>
				</port>
			</input>
			<output>
				<port id="1" precision="FP32">
					<dim>1</dim>
					<dim>96</dim>
					<dim>1</dim>
					<dim>1</dim>
				</port>
			</output>
		</layer>
		<layer id="122" name="aten::conv2d/Add_3" type="Add" version="opset1">
			<data auto_broadcast="numpy" />
			<input>
				<port id="0" precision="FP32">
					<dim>-1</dim>
					<dim>96</dim>
					<dim>-1</dim>
					<dim>-1</dim>
				</port>
				<port id="1" precision="FP32">
					<dim>1</dim>
					<dim>96</dim>
					<dim>1</dim>
					<dim>1</dim>
				</port>
			</input>
			<output>
				<port id="2" precision="FP32" names="232,input.43">
					<dim>-1</dim>
					<dim>96</dim>
					<dim>-1</dim>
					<dim>-1</dim>
				</port>
			</output>
		</layer>
		<layer id="123" name="aten::permute/Transpose_6" type="Transpose" version="opset1">
			<input>
				<port id="0" precision="FP32">
					<dim>-1</dim>
					<dim>96</dim>
					<dim>-1</dim>
					<dim>-1</dim>
				</port>
				<port id="1" precision="I32">
					<dim>4</dim>
				</port>
			</input>
			<output>
				<port id="2" precision="FP32" names="233,input.45">
					<dim>-1</dim>
					<dim>-1</dim>
					<dim>-1</dim>
					<dim>96</dim>
				</port>
			</output>
		</layer>
		<layer id="124" name="aten::layer_norm/Constant_3" type="Const" version="opset1">
			<data element_type="i32" shape="1" offset="22672" size="4" />
			<output>
				<port id="0" precision="I32">
					<dim>1</dim>
				</port>
			</output>
		</layer>
		<layer id="125" name="aten::layer_norm/MVN_3" type="MVN" version="opset6">
			<data eps="9.9999999747524271e-07" normalize_variance="true" eps_mode="INSIDE_SQRT" />
			<input>
				<port id="0" precision="FP32">
					<dim>-1</dim>
					<dim>-1</dim>
					<dim>-1</dim>
					<dim>96</dim>
				</port>
				<port id="1" precision="I32">
					<dim>1</dim>
				</port>
			</input>
			<output>
				<port id="2" precision="FP32">
					<dim>-1</dim>
					<dim>-1</dim>
					<dim>-1</dim>
					<dim>96</dim>
				</port>
			</output>
		</layer>
		<layer id="126" name="Constant_17406_compressed" type="Const" version="opset1">
			<data element_type="f16" shape="1, 1, 1, 96" offset="349476" size="192" />
			<output>
				<port id="0" precision="FP16">
					<dim>1</dim>
					<dim>1</dim>
					<dim>1</dim>
					<dim>96</dim>
				</port>
			</output>
		</layer>
		<layer id="127" name="Constant_17406" type="Convert" version="opset1">
			<data destination_type="f32" />
			<rt_info>
				<attribute name="decompression" version="0" />
			</rt_info>
			<input>
				<port id="0" precision="FP16">
					<dim>1</dim>
					<dim>1</dim>
					<dim>1</dim>
					<dim>96</dim>
				</port>
			</input>
			<output>
				<port id="1" precision="FP32">
					<dim>1</dim>
					<dim>1</dim>
					<dim>1</dim>
					<dim>96</dim>
				</port>
			</output>
		</layer>
		<layer id="128" name="aten::layer_norm/Multiply_3" type="Multiply" version="opset1">
			<data auto_broadcast="numpy" />
			<input>
				<port id="0" precision="FP32">
					<dim>-1</dim>
					<dim>-1</dim>
					<dim>-1</dim>
					<dim>96</dim>
				</port>
				<port id="1" precision="FP32">
					<dim>1</dim>
					<dim>1</dim>
					<dim>1</dim>
					<dim>96</dim>
				</port>
			</input>
			<output>
				<port id="2" precision="FP32">
					<dim>-1</dim>
					<dim>-1</dim>
					<dim>-1</dim>
					<dim>96</dim>
				</port>
			</output>
		</layer>
		<layer id="129" name="Constant_17407_compressed" type="Const" version="opset1">
			<data element_type="f16" shape="1, 1, 1, 96" offset="349668" size="192" />
			<output>
				<port id="0" precision="FP16">
					<dim>1</dim>
					<dim>1</dim>
					<dim>1</dim>
					<dim>96</dim>
				</port>
			</output>
		</layer>
		<layer id="130" name="Constant_17407" type="Convert" version="opset1">
			<data destination_type="f32" />
			<rt_info>
				<attribute name="decompression" version="0" />
			</rt_info>
			<input>
				<port id="0" precision="FP16">
					<dim>1</dim>
					<dim>1</dim>
					<dim>1</dim>
					<dim>96</dim>
				</port>
			</input>
			<output>
				<port id="1" precision="FP32">
					<dim>1</dim>
					<dim>1</dim>
					<dim>1</dim>
					<dim>96</dim>
				</port>
			</output>
		</layer>
		<layer id="131" name="aten::layer_norm/Add_3" type="Add" version="opset1">
			<data auto_broadcast="numpy" />
			<input>
				<port id="0" precision="FP32">
					<dim>-1</dim>
					<dim>-1</dim>
					<dim>-1</dim>
					<dim>96</dim>
				</port>
				<port id="1" precision="FP32">
					<dim>1</dim>
					<dim>1</dim>
					<dim>1</dim>
					<dim>96</dim>
				</port>
			</input>
			<output>
				<port id="2" precision="FP32" names="234,input.83">
					<dim>-1</dim>
					<dim>-1</dim>
					<dim>-1</dim>
					<dim>96</dim>
				</port>
			</output>
		</layer>
		<layer id="132" name="self.feature_extractor.features.1.2.block.3.weight_compressed" type="Const" version="opset1">
			<data element_type="f16" shape="384, 96" offset="349860" size="73728" />
			<output>
				<port id="0" precision="FP16" names="179,self.feature_extractor.features.1.2.block.3.weight">
					<dim>384</dim>
					<dim>96</dim>
				</port>
			</output>
		</layer>
		<layer id="133" name="self.feature_extractor.features.1.2.block.3.weight" type="Convert" version="opset1">
			<data destination_type="f32" />
			<rt_info>
				<attribute name="decompression" version="0" />
			</rt_info>
			<input>
				<port id="0" precision="FP16">
					<dim>384</dim>
					<dim>96</dim>
				</port>
			</input>
			<output>
				<port id="1" precision="FP32">
					<dim>384</dim>
					<dim>96</dim>
				</port>
			</output>
		</layer>
		<layer id="134" name="aten::linear/MatMul_4" type="MatMul" version="opset1">
			<data transpose_a="false" transpose_b="true" />
			<input>
				<port id="0" precision="FP32">
					<dim>-1</dim>
					<dim>-1</dim>
					<dim>-1</dim>
					<dim>96</dim>
				</port>
				<port id="1" precision="FP32">
					<dim>384</dim>
					<dim>96</dim>
				</port>
			</input>
			<output>
				<port id="2" precision="FP32">
					<dim>-1</dim>
					<dim>-1</dim>
					<dim>-1</dim>
					<dim>384</dim>
				</port>
			</output>
		</layer>
		<layer id="135" name="Constant_17408_compressed" type="Const" version="opset1">
			<data element_type="f16" shape="1, 1, 1, 384" offset="423588" size="768" />
			<output>
				<port id="0" precision="FP16">
					<dim>1</dim>
					<dim>1</dim>
					<dim>1</dim>
					<dim>384</dim>
				</port>
			</output>
		</layer>
		<layer id="136" name="Constant_17408" type="Convert" version="opset1">
			<data destination_type="f32" />
			<rt_info>
				<attribute name="decompression" version="0" />
			</rt_info>
			<input>
				<port id="0" precision="FP16">
					<dim>1</dim>
					<dim>1</dim>
					<dim>1</dim>
					<dim>384</dim>
				</port>
			</input>
			<output>
				<port id="1" precision="FP32">
					<dim>1</dim>
					<dim>1</dim>
					<dim>1</dim>
					<dim>384</dim>
				</port>
			</output>
		</layer>
		<layer id="137" name="aten::linear/Add_4" type="Add" version="opset1">
			<data auto_broadcast="numpy" />
			<input>
				<port id="0" precision="FP32">
					<dim>-1</dim>
					<dim>-1</dim>
					<dim>-1</dim>
					<dim>384</dim>
				</port>
				<port id="1" precision="FP32">
					<dim>1</dim>
					<dim>1</dim>
					<dim>1</dim>
					<dim>384</dim>
				</port>
			</input>
			<output>
				<port id="2" precision="FP32" names="235,input.85">
					<dim>-1</dim>
					<dim>-1</dim>
					<dim>-1</dim>
					<dim>384</dim>
				</port>
			</output>
		</layer>
		<layer id="138" name="aten::gelu/Gelu_2" type="Gelu" version="opset7">
			<data approximation_mode="ERF" />
			<input>
				<port id="0" precision="FP32">
					<dim>-1</dim>
					<dim>-1</dim>
					<dim>-1</dim>
					<dim>384</dim>
				</port>
			</input>
			<output>
				<port id="1" precision="FP32" names="236,input.87">
					<dim>-1</dim>
					<dim>-1</dim>
					<dim>-1</dim>
					<dim>384</dim>
				</port>
			</output>
		</layer>
		<layer id="139" name="self.feature_extractor.features.1.2.block.5.weight_compressed" type="Const" version="opset1">
			<data element_type="f16" shape="96, 384" offset="424356" size="73728" />
			<output>
				<port id="0" precision="FP16" names="177,self.feature_extractor.features.1.2.block.5.weight">
					<dim>96</dim>
					<dim>384</dim>
				</port>
			</output>
		</layer>
		<layer id="140" name="self.feature_extractor.features.1.2.block.5.weight" type="Convert" version="opset1">
			<data destination_type="f32" />
			<rt_info>
				<attribute name="decompression" version="0" />
			</rt_info>
			<input>
				<port id="0" precision="FP16">
					<dim>96</dim>
					<dim>384</dim>
				</port>
			</input>
			<output>
				<port id="1" precision="FP32">
					<dim>96</dim>
					<dim>384</dim>
				</port>
			</output>
		</layer>
		<layer id="141" name="aten::linear/MatMul_5" type="MatMul" version="opset1">
			<data transpose_a="false" transpose_b="true" />
			<input>
				<port id="0" precision="FP32">
					<dim>-1</dim>
					<dim>-1</dim>
					<dim>-1</dim>
					<dim>384</dim>
				</port>
				<port id="1" precision="FP32">
					<dim>96</dim>
					<dim>384</dim>
				</port>
			</input>
			<output>
				<port id="2" precision="FP32">
					<dim>-1</dim>
					<dim>-1</dim>
					<dim>-1</dim>
					<dim>96</dim>
				</port>
			</output>
		</layer>
		<layer id="142" name="Constant_17409_compressed" type="Const" version="opset1">
			<data element_type="f16" shape="1, 1, 1, 96" offset="498084" size="192" />
			<output>
				<port id="0" precision="FP16">
					<dim>1</dim>
					<dim>1</dim>
					<dim>1</dim>
					<dim>96</dim>
				</port>
			</output>
		</layer>
		<layer id="143" name="Constant_17409" type="Convert" version="opset1">
			<data destination_type="f32" />
			<rt_info>
				<attribute name="decompression" version="0" />
			</rt_info>
			<input>
				<port id="0" precision="FP16">
					<dim>1</dim>
					<dim>1</dim>
					<dim>1</dim>
					<dim>96</dim>
				</port>
			</input>
			<output>
				<port id="1" precision="FP32">
					<dim>1</dim>
					<dim>1</dim>
					<dim>1</dim>
					<dim>96</dim>
				</port>
			</output>
		</layer>
		<layer id="144" name="aten::linear/Add_5" type="Add" version="opset1">
			<data auto_broadcast="numpy" />
			<input>
				<port id="0" precision="FP32">
					<dim>-1</dim>
					<dim>-1</dim>
					<dim>-1</dim>
					<dim>96</dim>
				</port>
				<port id="1" precision="FP32">
					<dim>1</dim>
					<dim>1</dim>
					<dim>1</dim>
					<dim>96</dim>
				</port>
			</input>
			<output>
				<port id="2" precision="FP32" names="237,input.89">
					<dim>-1</dim>
					<dim>-1</dim>
					<dim>-1</dim>
					<dim>96</dim>
				</port>
			</output>
		</layer>
		<layer id="145" name="aten::permute/Transpose_7" type="Transpose" version="opset1">
			<input>
				<port id="0" precision="FP32">
					<dim>-1</dim>
					<dim>-1</dim>
					<dim>-1</dim>
					<dim>96</dim>
				</port>
				<port id="1" precision="I32">
					<dim>4</dim>
				</port>
			</input>
			<output>
				<port id="2" precision="FP32" names="238,input.91">
					<dim>-1</dim>
					<dim>96</dim>
					<dim>-1</dim>
					<dim>-1</dim>
				</port>
			</output>
		</layer>
		<layer id="146" name="aten::mul/Multiply_2" type="Multiply" version="opset1">
			<data auto_broadcast="numpy" />
			<input>
				<port id="0" precision="FP32">
					<dim>1</dim>
					<dim>96</dim>
					<dim>1</dim>
					<dim>1</dim>
				</port>
				<port id="1" precision="FP32">
					<dim>-1</dim>
					<dim>96</dim>
					<dim>-1</dim>
					<dim>-1</dim>
				</port>
			</input>
			<output>
				<port id="2" precision="FP32" names="239_1">
					<dim>-1</dim>
					<dim>96</dim>
					<dim>-1</dim>
					<dim>-1</dim>
				</port>
			</output>
		</layer>
		<layer id="147" name="aten::add_/Add_2" type="Add" version="opset1">
			<data auto_broadcast="numpy" />
			<input>
				<port id="0" precision="FP32">
					<dim>-1</dim>
					<dim>96</dim>
					<dim>-1</dim>
					<dim>-1</dim>
				</port>
				<port id="1" precision="FP32">
					<dim>-1</dim>
					<dim>96</dim>
					<dim>-1</dim>
					<dim>-1</dim>
				</port>
			</input>
			<output>
				<port id="2" precision="FP32" names="239,result.13">
					<dim>-1</dim>
					<dim>96</dim>
					<dim>-1</dim>
					<dim>-1</dim>
				</port>
			</output>
		</layer>
		<layer id="148" name="aten::permute/Transpose_8" type="Transpose" version="opset1">
			<input>
				<port id="0" precision="FP32">
					<dim>-1</dim>
					<dim>96</dim>
					<dim>-1</dim>
					<dim>-1</dim>
				</port>
				<port id="1" precision="I32">
					<dim>4</dim>
				</port>
			</input>
			<output>
				<port id="2" precision="FP32" names="241,x.12">
					<dim>-1</dim>
					<dim>-1</dim>
					<dim>-1</dim>
					<dim>96</dim>
				</port>
			</output>
		</layer>
		<layer id="149" name="aten::layer_norm/Constant_4" type="Const" version="opset1">
			<data element_type="i32" shape="1" offset="22672" size="4" />
			<output>
				<port id="0" precision="I32">
					<dim>1</dim>
				</port>
			</output>
		</layer>
		<layer id="150" name="aten::layer_norm/MVN_4" type="MVN" version="opset6">
			<data eps="9.9999999747524271e-07" normalize_variance="true" eps_mode="INSIDE_SQRT" />
			<input>
				<port id="0" precision="FP32">
					<dim>-1</dim>
					<dim>-1</dim>
					<dim>-1</dim>
					<dim>96</dim>
				</port>
				<port id="1" precision="I32">
					<dim>1</dim>
				</port>
			</input>
			<output>
				<port id="2" precision="FP32">
					<dim>-1</dim>
					<dim>-1</dim>
					<dim>-1</dim>
					<dim>96</dim>
				</port>
			</output>
		</layer>
		<layer id="151" name="Constant_17411_compressed" type="Const" version="opset1">
			<data element_type="f16" shape="1, 1, 1, 96" offset="498276" size="192" />
			<output>
				<port id="0" precision="FP16">
					<dim>1</dim>
					<dim>1</dim>
					<dim>1</dim>
					<dim>96</dim>
				</port>
			</output>
		</layer>
		<layer id="152" name="Constant_17411" type="Convert" version="opset1">
			<data destination_type="f32" />
			<rt_info>
				<attribute name="decompression" version="0" />
			</rt_info>
			<input>
				<port id="0" precision="FP16">
					<dim>1</dim>
					<dim>1</dim>
					<dim>1</dim>
					<dim>96</dim>
				</port>
			</input>
			<output>
				<port id="1" precision="FP32">
					<dim>1</dim>
					<dim>1</dim>
					<dim>1</dim>
					<dim>96</dim>
				</port>
			</output>
		</layer>
		<layer id="153" name="aten::layer_norm/Multiply_4" type="Multiply" version="opset1">
			<data auto_broadcast="numpy" />
			<input>
				<port id="0" precision="FP32">
					<dim>-1</dim>
					<dim>-1</dim>
					<dim>-1</dim>
					<dim>96</dim>
				</port>
				<port id="1" precision="FP32">
					<dim>1</dim>
					<dim>1</dim>
					<dim>1</dim>
					<dim>96</dim>
				</port>
			</input>
			<output>
				<port id="2" precision="FP32">
					<dim>-1</dim>
					<dim>-1</dim>
					<dim>-1</dim>
					<dim>96</dim>
				</port>
			</output>
		</layer>
		<layer id="154" name="Constant_17412_compressed" type="Const" version="opset1">
			<data element_type="f16" shape="1, 1, 1, 96" offset="498468" size="192" />
			<output>
				<port id="0" precision="FP16">
					<dim>1</dim>
					<dim>1</dim>
					<dim>1</dim>
					<dim>96</dim>
				</port>
			</output>
		</layer>
		<layer id="155" name="Constant_17412" type="Convert" version="opset1">
			<data destination_type="f32" />
			<rt_info>
				<attribute name="decompression" version="0" />
			</rt_info>
			<input>
				<port id="0" precision="FP16">
					<dim>1</dim>
					<dim>1</dim>
					<dim>1</dim>
					<dim>96</dim>
				</port>
			</input>
			<output>
				<port id="1" precision="FP32">
					<dim>1</dim>
					<dim>1</dim>
					<dim>1</dim>
					<dim>96</dim>
				</port>
			</output>
		</layer>
		<layer id="156" name="aten::layer_norm/Add_4" type="Add" version="opset1">
			<data auto_broadcast="numpy" />
			<input>
				<port id="0" precision="FP32">
					<dim>-1</dim>
					<dim>-1</dim>
					<dim>-1</dim>
					<dim>96</dim>
				</port>
				<port id="1" precision="FP32">
					<dim>1</dim>
					<dim>1</dim>
					<dim>1</dim>
					<dim>96</dim>
				</port>
			</input>
			<output>
				<port id="2" precision="FP32" names="242,x.14">
					<dim>-1</dim>
					<dim>-1</dim>
					<dim>-1</dim>
					<dim>96</dim>
				</port>
			</output>
		</layer>
		<layer id="157" name="aten::permute/Transpose_9" type="Transpose" version="opset1">
			<input>
				<port id="0" precision="FP32">
					<dim>-1</dim>
					<dim>-1</dim>
					<dim>-1</dim>
					<dim>96</dim>
				</port>
				<port id="1" precision="I32">
					<dim>4</dim>
				</port>
			</input>
			<output>
				<port id="2" precision="FP32" names="243,input.81">
					<dim>-1</dim>
					<dim>96</dim>
					<dim>-1</dim>
					<dim>-1</dim>
				</port>
			</output>
		</layer>
		<layer id="158" name="self.feature_extractor.features.2.1.weight_compressed" type="Const" version="opset1">
			<data element_type="f16" shape="192, 96, 2, 2" offset="498660" size="147456" />
			<output>
				<port id="0" precision="FP16" names="173,self.feature_extractor.features.2.1.weight">
					<dim>192</dim>
					<dim>96</dim>
					<dim>2</dim>
					<dim>2</dim>
				</port>
			</output>
		</layer>
		<layer id="159" name="self.feature_extractor.features.2.1.weight" type="Convert" version="opset1">
			<data destination_type="f32" />
			<rt_info>
				<attribute name="decompression" version="0" />
			</rt_info>
			<input>
				<port id="0" precision="FP16">
					<dim>192</dim>
					<dim>96</dim>
					<dim>2</dim>
					<dim>2</dim>
				</port>
			</input>
			<output>
				<port id="1" precision="FP32">
					<dim>192</dim>
					<dim>96</dim>
					<dim>2</dim>
					<dim>2</dim>
				</port>
			</output>
		</layer>
		<layer id="160" name="Convolution_13593" type="Convolution" version="opset1">
			<data strides="2, 2" dilations="1, 1" pads_begin="0, 0" pads_end="0, 0" auto_pad="explicit" />
			<input>
				<port id="0" precision="FP32">
					<dim>-1</dim>
					<dim>96</dim>
					<dim>-1</dim>
					<dim>-1</dim>
				</port>
				<port id="1" precision="FP32">
					<dim>192</dim>
					<dim>96</dim>
					<dim>2</dim>
					<dim>2</dim>
				</port>
			</input>
			<output>
				<port id="2" precision="FP32">
					<dim>-1</dim>
					<dim>192</dim>
					<dim>-1</dim>
					<dim>-1</dim>
				</port>
			</output>
		</layer>
		<layer id="161" name="aten::conv2d/Reshape_4_compressed" type="Const" version="opset1">
			<data element_type="f16" shape="1, 192, 1, 1" offset="646116" size="384" />
			<output>
				<port id="0" precision="FP16">
					<dim>1</dim>
					<dim>192</dim>
					<dim>1</dim>
					<dim>1</dim>
				</port>
			</output>
		</layer>
		<layer id="162" name="aten::conv2d/Reshape_4" type="Convert" version="opset1">
			<data destination_type="f32" />
			<rt_info>
				<attribute name="decompression" version="0" />
			</rt_info>
			<input>
				<port id="0" precision="FP16">
					<dim>1</dim>
					<dim>192</dim>
					<dim>1</dim>
					<dim>1</dim>
				</port>
			</input>
			<output>
				<port id="1" precision="FP32">
					<dim>1</dim>
					<dim>192</dim>
					<dim>1</dim>
					<dim>1</dim>
				</port>
			</output>
		</layer>
		<layer id="163" name="aten::conv2d/Add_4" type="Add" version="opset1">
			<data auto_broadcast="numpy" />
			<input>
				<port id="0" precision="FP32">
					<dim>-1</dim>
					<dim>192</dim>
					<dim>-1</dim>
					<dim>-1</dim>
				</port>
				<port id="1" precision="FP32">
					<dim>1</dim>
					<dim>192</dim>
					<dim>1</dim>
					<dim>1</dim>
				</port>
			</input>
			<output>
				<port id="2" precision="FP32" names="244,input.23">
					<dim>-1</dim>
					<dim>192</dim>
					<dim>-1</dim>
					<dim>-1</dim>
				</port>
			</output>
		</layer>
		<layer id="164" name="Reshape_13626_compressed" type="Const" version="opset1">
			<data element_type="f16" shape="192, 1, 1, 7, 7" offset="646500" size="18816" />
			<output>
				<port id="0" precision="FP16">
					<dim>192</dim>
					<dim>1</dim>
					<dim>1</dim>
					<dim>7</dim>
					<dim>7</dim>
				</port>
			</output>
		</layer>
		<layer id="165" name="Reshape_13626" type="Convert" version="opset1">
			<data destination_type="f32" />
			<rt_info>
				<attribute name="decompression" version="0" />
			</rt_info>
			<input>
				<port id="0" precision="FP16">
					<dim>192</dim>
					<dim>1</dim>
					<dim>1</dim>
					<dim>7</dim>
					<dim>7</dim>
				</port>
			</input>
			<output>
				<port id="1" precision="FP32">
					<dim>192</dim>
					<dim>1</dim>
					<dim>1</dim>
					<dim>7</dim>
					<dim>7</dim>
				</port>
			</output>
		</layer>
		<layer id="166" name="GroupConvolution_13667" type="GroupConvolution" version="opset1">
			<data strides="1, 1" pads_begin="3, 3" pads_end="3, 3" dilations="1, 1" auto_pad="explicit" />
			<input>
				<port id="0" precision="FP32">
					<dim>-1</dim>
					<dim>192</dim>
					<dim>-1</dim>
					<dim>-1</dim>
				</port>
				<port id="1" precision="FP32">
					<dim>192</dim>
					<dim>1</dim>
					<dim>1</dim>
					<dim>7</dim>
					<dim>7</dim>
				</port>
			</input>
			<output>
				<port id="2" precision="FP32">
					<dim>-1</dim>
					<dim>192</dim>
					<dim>-1</dim>
					<dim>-1</dim>
				</port>
			</output>
		</layer>
		<layer id="167" name="aten::conv2d/Reshape_5_compressed" type="Const" version="opset1">
			<data element_type="f16" shape="1, 192, 1, 1" offset="665316" size="384" />
			<output>
				<port id="0" precision="FP16">
					<dim>1</dim>
					<dim>192</dim>
					<dim>1</dim>
					<dim>1</dim>
				</port>
			</output>
		</layer>
		<layer id="168" name="aten::conv2d/Reshape_5" type="Convert" version="opset1">
			<data destination_type="f32" />
			<rt_info>
				<attribute name="decompression" version="0" />
			</rt_info>
			<input>
				<port id="0" precision="FP16">
					<dim>1</dim>
					<dim>192</dim>
					<dim>1</dim>
					<dim>1</dim>
				</port>
			</input>
			<output>
				<port id="1" precision="FP32">
					<dim>1</dim>
					<dim>192</dim>
					<dim>1</dim>
					<dim>1</dim>
				</port>
			</output>
		</layer>
		<layer id="169" name="aten::conv2d/Add_5" type="Add" version="opset1">
			<data auto_broadcast="numpy" />
			<input>
				<port id="0" precision="FP32">
					<dim>-1</dim>
					<dim>192</dim>
					<dim>-1</dim>
					<dim>-1</dim>
				</port>
				<port id="1" precision="FP32">
					<dim>1</dim>
					<dim>192</dim>
					<dim>1</dim>
					<dim>1</dim>
				</port>
			</input>
			<output>
				<port id="2" precision="FP32" names="245,input.119">
					<dim>-1</dim>
					<dim>192</dim>
					<dim>-1</dim>
					<dim>-1</dim>
				</port>
			</output>
		</layer>
		<layer id="170" name="aten::permute/Transpose_10" type="Transpose" version="opset1">
			<input>
				<port id="0" precision="FP32">
					<dim>-1</dim>
					<dim>192</dim>
					<dim>-1</dim>
					<dim>-1</dim>
				</port>
				<port id="1" precision="I32">
					<dim>4</dim>
				</port>
			</input>
			<output>
				<port id="2" precision="FP32" names="246,input.153">
					<dim>-1</dim>
					<dim>-1</dim>
					<dim>-1</dim>
					<dim>192</dim>
				</port>
			</output>
		</layer>
		<layer id="171" name="aten::layer_norm/Constant_5" type="Const" version="opset1">
			<data element_type="i32" shape="1" offset="22672" size="4" />
			<output>
				<port id="0" precision="I32">
					<dim>1</dim>
				</port>
			</output>
		</layer>
		<layer id="172" name="aten::layer_norm/MVN_5" type="MVN" version="opset6">
			<data eps="9.9999999747524271e-07" normalize_variance="true" eps_mode="INSIDE_SQRT" />
			<input>
				<port id="0" precision="FP32">
					<dim>-1</dim>
					<dim>-1</dim>
					<dim>-1</dim>
					<dim>192</dim>
				</port>
				<port id="1" precision="I32">
					<dim>1</dim>
				</port>
			</input>
			<output>
				<port id="2" precision="FP32">
					<dim>-1</dim>
					<dim>-1</dim>
					<dim>-1</dim>
					<dim>192</dim>
				</port>
			</output>
		</layer>
		<layer id="173" name="Constant_17413_compressed" type="Const" version="opset1">
			<data element_type="f16" shape="1, 1, 1, 192" offset="665700" size="384" />
			<output>
				<port id="0" precision="FP16">
					<dim>1</dim>
					<dim>1</dim>
					<dim>1</dim>
					<dim>192</dim>
				</port>
			</output>
		</layer>
		<layer id="174" name="Constant_17413" type="Convert" version="opset1">
			<data destination_type="f32" />
			<rt_info>
				<attribute name="decompression" version="0" />
			</rt_info>
			<input>
				<port id="0" precision="FP16">
					<dim>1</dim>
					<dim>1</dim>
					<dim>1</dim>
					<dim>192</dim>
				</port>
			</input>
			<output>
				<port id="1" precision="FP32">
					<dim>1</dim>
					<dim>1</dim>
					<dim>1</dim>
					<dim>192</dim>
				</port>
			</output>
		</layer>
		<layer id="175" name="aten::layer_norm/Multiply_5" type="Multiply" version="opset1">
			<data auto_broadcast="numpy" />
			<input>
				<port id="0" precision="FP32">
					<dim>-1</dim>
					<dim>-1</dim>
					<dim>-1</dim>
					<dim>192</dim>
				</port>
				<port id="1" precision="FP32">
					<dim>1</dim>
					<dim>1</dim>
					<dim>1</dim>
					<dim>192</dim>
				</port>
			</input>
			<output>
				<port id="2" precision="FP32">
					<dim>-1</dim>
					<dim>-1</dim>
					<dim>-1</dim>
					<dim>192</dim>
				</port>
			</output>
		</layer>
		<layer id="176" name="Constant_17414_compressed" type="Const" version="opset1">
			<data element_type="f16" shape="1, 1, 1, 192" offset="666084" size="384" />
			<output>
				<port id="0" precision="FP16">
					<dim>1</dim>
					<dim>1</dim>
					<dim>1</dim>
					<dim>192</dim>
				</port>
			</output>
		</layer>
		<layer id="177" name="Constant_17414" type="Convert" version="opset1">
			<data destination_type="f32" />
			<rt_info>
				<attribute name="decompression" version="0" />
			</rt_info>
			<input>
				<port id="0" precision="FP16">
					<dim>1</dim>
					<dim>1</dim>
					<dim>1</dim>
					<dim>192</dim>
				</port>
			</input>
			<output>
				<port id="1" precision="FP32">
					<dim>1</dim>
					<dim>1</dim>
					<dim>1</dim>
					<dim>192</dim>
				</port>
			</output>
		</layer>
		<layer id="178" name="aten::layer_norm/Add_5" type="Add" version="opset1">
			<data auto_broadcast="numpy" />
			<input>
				<port id="0" precision="FP32">
					<dim>-1</dim>
					<dim>-1</dim>
					<dim>-1</dim>
					<dim>192</dim>
				</port>
				<port id="1" precision="FP32">
					<dim>1</dim>
					<dim>1</dim>
					<dim>1</dim>
					<dim>192</dim>
				</port>
			</input>
			<output>
				<port id="2" precision="FP32" names="247,input.121">
					<dim>-1</dim>
					<dim>-1</dim>
					<dim>-1</dim>
					<dim>192</dim>
				</port>
			</output>
		</layer>
		<layer id="179" name="self.feature_extractor.features.3.0.block.3.weight_compressed" type="Const" version="opset1">
			<data element_type="f16" shape="768, 192" offset="666468" size="294912" />
			<output>
				<port id="0" precision="FP16" names="166,self.feature_extractor.features.3.0.block.3.weight">
					<dim>768</dim>
					<dim>192</dim>
				</port>
			</output>
		</layer>
		<layer id="180" name="self.feature_extractor.features.3.0.block.3.weight" type="Convert" version="opset1">
			<data destination_type="f32" />
			<rt_info>
				<attribute name="decompression" version="0" />
			</rt_info>
			<input>
				<port id="0" precision="FP16">
					<dim>768</dim>
					<dim>192</dim>
				</port>
			</input>
			<output>
				<port id="1" precision="FP32">
					<dim>768</dim>
					<dim>192</dim>
				</port>
			</output>
		</layer>
		<layer id="181" name="aten::linear/MatMul_6" type="MatMul" version="opset1">
			<data transpose_a="false" transpose_b="true" />
			<input>
				<port id="0" precision="FP32">
					<dim>-1</dim>
					<dim>-1</dim>
					<dim>-1</dim>
					<dim>192</dim>
				</port>
				<port id="1" precision="FP32">
					<dim>768</dim>
					<dim>192</dim>
				</port>
			</input>
			<output>
				<port id="2" precision="FP32">
					<dim>-1</dim>
					<dim>-1</dim>
					<dim>-1</dim>
					<dim>768</dim>
				</port>
			</output>
		</layer>
		<layer id="182" name="Constant_17415_compressed" type="Const" version="opset1">
			<data element_type="f16" shape="1, 1, 1, 768" offset="961380" size="1536" />
			<output>
				<port id="0" precision="FP16">
					<dim>1</dim>
					<dim>1</dim>
					<dim>1</dim>
					<dim>768</dim>
				</port>
			</output>
		</layer>
		<layer id="183" name="Constant_17415" type="Convert" version="opset1">
			<data destination_type="f32" />
			<rt_info>
				<attribute name="decompression" version="0" />
			</rt_info>
			<input>
				<port id="0" precision="FP16">
					<dim>1</dim>
					<dim>1</dim>
					<dim>1</dim>
					<dim>768</dim>
				</port>
			</input>
			<output>
				<port id="1" precision="FP32">
					<dim>1</dim>
					<dim>1</dim>
					<dim>1</dim>
					<dim>768</dim>
				</port>
			</output>
		</layer>
		<layer id="184" name="aten::linear/Add_6" type="Add" version="opset1">
			<data auto_broadcast="numpy" />
			<input>
				<port id="0" precision="FP32">
					<dim>-1</dim>
					<dim>-1</dim>
					<dim>-1</dim>
					<dim>768</dim>
				</port>
				<port id="1" precision="FP32">
					<dim>1</dim>
					<dim>1</dim>
					<dim>1</dim>
					<dim>768</dim>
				</port>
			</input>
			<output>
				<port id="2" precision="FP32" names="248,input.157">
					<dim>-1</dim>
					<dim>-1</dim>
					<dim>-1</dim>
					<dim>768</dim>
				</port>
			</output>
		</layer>
		<layer id="185" name="aten::gelu/Gelu_3" type="Gelu" version="opset7">
			<data approximation_mode="ERF" />
			<input>
				<port id="0" precision="FP32">
					<dim>-1</dim>
					<dim>-1</dim>
					<dim>-1</dim>
					<dim>768</dim>
				</port>
			</input>
			<output>
				<port id="1" precision="FP32" names="249,input.123">
					<dim>-1</dim>
					<dim>-1</dim>
					<dim>-1</dim>
					<dim>768</dim>
				</port>
			</output>
		</layer>
		<layer id="186" name="self.feature_extractor.features.3.0.block.5.weight_compressed" type="Const" version="opset1">
			<data element_type="f16" shape="192, 768" offset="962916" size="294912" />
			<output>
				<port id="0" precision="FP16" names="164,self.feature_extractor.features.3.0.block.5.weight">
					<dim>192</dim>
					<dim>768</dim>
				</port>
			</output>
		</layer>
		<layer id="187" name="self.feature_extractor.features.3.0.block.5.weight" type="Convert" version="opset1">
			<data destination_type="f32" />
			<rt_info>
				<attribute name="decompression" version="0" />
			</rt_info>
			<input>
				<port id="0" precision="FP16">
					<dim>192</dim>
					<dim>768</dim>
				</port>
			</input>
			<output>
				<port id="1" precision="FP32">
					<dim>192</dim>
					<dim>768</dim>
				</port>
			</output>
		</layer>
		<layer id="188" name="aten::linear/MatMul_7" type="MatMul" version="opset1">
			<data transpose_a="false" transpose_b="true" />
			<input>
				<port id="0" precision="FP32">
					<dim>-1</dim>
					<dim>-1</dim>
					<dim>-1</dim>
					<dim>768</dim>
				</port>
				<port id="1" precision="FP32">
					<dim>192</dim>
					<dim>768</dim>
				</port>
			</input>
			<output>
				<port id="2" precision="FP32">
					<dim>-1</dim>
					<dim>-1</dim>
					<dim>-1</dim>
					<dim>192</dim>
				</port>
			</output>
		</layer>
		<layer id="189" name="Constant_17416_compressed" type="Const" version="opset1">
			<data element_type="f16" shape="1, 1, 1, 192" offset="1257828" size="384" />
			<output>
				<port id="0" precision="FP16">
					<dim>1</dim>
					<dim>1</dim>
					<dim>1</dim>
					<dim>192</dim>
				</port>
			</output>
		</layer>
		<layer id="190" name="Constant_17416" type="Convert" version="opset1">
			<data destination_type="f32" />
			<rt_info>
				<attribute name="decompression" version="0" />
			</rt_info>
			<input>
				<port id="0" precision="FP16">
					<dim>1</dim>
					<dim>1</dim>
					<dim>1</dim>
					<dim>192</dim>
				</port>
			</input>
			<output>
				<port id="1" precision="FP32">
					<dim>1</dim>
					<dim>1</dim>
					<dim>1</dim>
					<dim>192</dim>
				</port>
			</output>
		</layer>
		<layer id="191" name="aten::linear/Add_7" type="Add" version="opset1">
			<data auto_broadcast="numpy" />
			<input>
				<port id="0" precision="FP32">
					<dim>-1</dim>
					<dim>-1</dim>
					<dim>-1</dim>
					<dim>192</dim>
				</port>
				<port id="1" precision="FP32">
					<dim>1</dim>
					<dim>1</dim>
					<dim>1</dim>
					<dim>192</dim>
				</port>
			</input>
			<output>
				<port id="2" precision="FP32" names="250,input.161">
					<dim>-1</dim>
					<dim>-1</dim>
					<dim>-1</dim>
					<dim>192</dim>
				</port>
			</output>
		</layer>
		<layer id="192" name="aten::permute/Transpose_11" type="Transpose" version="opset1">
			<input>
				<port id="0" precision="FP32">
					<dim>-1</dim>
					<dim>-1</dim>
					<dim>-1</dim>
					<dim>192</dim>
				</port>
				<port id="1" precision="I32">
					<dim>4</dim>
				</port>
			</input>
			<output>
				<port id="2" precision="FP32" names="251,input.125">
					<dim>-1</dim>
					<dim>192</dim>
					<dim>-1</dim>
					<dim>-1</dim>
				</port>
			</output>
		</layer>
		<layer id="193" name="aten::mul/Multiply_3" type="Multiply" version="opset1">
			<data auto_broadcast="numpy" />
			<input>
				<port id="0" precision="FP32">
					<dim>1</dim>
					<dim>192</dim>
					<dim>1</dim>
					<dim>1</dim>
				</port>
				<port id="1" precision="FP32">
					<dim>-1</dim>
					<dim>192</dim>
					<dim>-1</dim>
					<dim>-1</dim>
				</port>
			</input>
			<output>
				<port id="2" precision="FP32" names="252_1">
					<dim>-1</dim>
					<dim>192</dim>
					<dim>-1</dim>
					<dim>-1</dim>
				</port>
			</output>
		</layer>
		<layer id="194" name="aten::add_/Add_3" type="Add" version="opset1">
			<data auto_broadcast="numpy" />
			<input>
				<port id="0" precision="FP32">
					<dim>-1</dim>
					<dim>192</dim>
					<dim>-1</dim>
					<dim>-1</dim>
				</port>
				<port id="1" precision="FP32">
					<dim>-1</dim>
					<dim>192</dim>
					<dim>-1</dim>
					<dim>-1</dim>
				</port>
			</input>
			<output>
				<port id="2" precision="FP32" names="252,result.17">
					<dim>-1</dim>
					<dim>192</dim>
					<dim>-1</dim>
					<dim>-1</dim>
				</port>
			</output>
		</layer>
		<layer id="195" name="Reshape_13715_compressed" type="Const" version="opset1">
			<data element_type="f16" shape="192, 1, 1, 7, 7" offset="1258212" size="18816" />
			<output>
				<port id="0" precision="FP16">
					<dim>192</dim>
					<dim>1</dim>
					<dim>1</dim>
					<dim>7</dim>
					<dim>7</dim>
				</port>
			</output>
		</layer>
		<layer id="196" name="Reshape_13715" type="Convert" version="opset1">
			<data destination_type="f32" />
			<rt_info>
				<attribute name="decompression" version="0" />
			</rt_info>
			<input>
				<port id="0" precision="FP16">
					<dim>192</dim>
					<dim>1</dim>
					<dim>1</dim>
					<dim>7</dim>
					<dim>7</dim>
				</port>
			</input>
			<output>
				<port id="1" precision="FP32">
					<dim>192</dim>
					<dim>1</dim>
					<dim>1</dim>
					<dim>7</dim>
					<dim>7</dim>
				</port>
			</output>
		</layer>
		<layer id="197" name="GroupConvolution_13756" type="GroupConvolution" version="opset1">
			<data strides="1, 1" pads_begin="3, 3" pads_end="3, 3" dilations="1, 1" auto_pad="explicit" />
			<input>
				<port id="0" precision="FP32">
					<dim>-1</dim>
					<dim>192</dim>
					<dim>-1</dim>
					<dim>-1</dim>
				</port>
				<port id="1" precision="FP32">
					<dim>192</dim>
					<dim>1</dim>
					<dim>1</dim>
					<dim>7</dim>
					<dim>7</dim>
				</port>
			</input>
			<output>
				<port id="2" precision="FP32">
					<dim>-1</dim>
					<dim>192</dim>
					<dim>-1</dim>
					<dim>-1</dim>
				</port>
			</output>
		</layer>
		<layer id="198" name="aten::conv2d/Reshape_6_compressed" type="Const" version="opset1">
			<data element_type="f16" shape="1, 192, 1, 1" offset="1277028" size="384" />
			<output>
				<port id="0" precision="FP16">
					<dim>1</dim>
					<dim>192</dim>
					<dim>1</dim>
					<dim>1</dim>
				</port>
			</output>
		</layer>
		<layer id="199" name="aten::conv2d/Reshape_6" type="Convert" version="opset1">
			<data destination_type="f32" />
			<rt_info>
				<attribute name="decompression" version="0" />
			</rt_info>
			<input>
				<port id="0" precision="FP16">
					<dim>1</dim>
					<dim>192</dim>
					<dim>1</dim>
					<dim>1</dim>
				</port>
			</input>
			<output>
				<port id="1" precision="FP32">
					<dim>1</dim>
					<dim>192</dim>
					<dim>1</dim>
					<dim>1</dim>
				</port>
			</output>
		</layer>
		<layer id="200" name="aten::conv2d/Add_6" type="Add" version="opset1">
			<data auto_broadcast="numpy" />
			<input>
				<port id="0" precision="FP32">
					<dim>-1</dim>
					<dim>192</dim>
					<dim>-1</dim>
					<dim>-1</dim>
				</port>
				<port id="1" precision="FP32">
					<dim>1</dim>
					<dim>192</dim>
					<dim>1</dim>
					<dim>1</dim>
				</port>
			</input>
			<output>
				<port id="2" precision="FP32" names="254,input.101">
					<dim>-1</dim>
					<dim>192</dim>
					<dim>-1</dim>
					<dim>-1</dim>
				</port>
			</output>
		</layer>
		<layer id="201" name="aten::permute/Transpose_12" type="Transpose" version="opset1">
			<input>
				<port id="0" precision="FP32">
					<dim>-1</dim>
					<dim>192</dim>
					<dim>-1</dim>
					<dim>-1</dim>
				</port>
				<port id="1" precision="I32">
					<dim>4</dim>
				</port>
			</input>
			<output>
				<port id="2" precision="FP32" names="255,input.103">
					<dim>-1</dim>
					<dim>-1</dim>
					<dim>-1</dim>
					<dim>192</dim>
				</port>
			</output>
		</layer>
		<layer id="202" name="aten::layer_norm/Constant_6" type="Const" version="opset1">
			<data element_type="i32" shape="1" offset="22672" size="4" />
			<output>
				<port id="0" precision="I32">
					<dim>1</dim>
				</port>
			</output>
		</layer>
		<layer id="203" name="aten::layer_norm/MVN_6" type="MVN" version="opset6">
			<data eps="9.9999999747524271e-07" normalize_variance="true" eps_mode="INSIDE_SQRT" />
			<input>
				<port id="0" precision="FP32">
					<dim>-1</dim>
					<dim>-1</dim>
					<dim>-1</dim>
					<dim>192</dim>
				</port>
				<port id="1" precision="I32">
					<dim>1</dim>
				</port>
			</input>
			<output>
				<port id="2" precision="FP32">
					<dim>-1</dim>
					<dim>-1</dim>
					<dim>-1</dim>
					<dim>192</dim>
				</port>
			</output>
		</layer>
		<layer id="204" name="Constant_17418_compressed" type="Const" version="opset1">
			<data element_type="f16" shape="1, 1, 1, 192" offset="1277412" size="384" />
			<output>
				<port id="0" precision="FP16">
					<dim>1</dim>
					<dim>1</dim>
					<dim>1</dim>
					<dim>192</dim>
				</port>
			</output>
		</layer>
		<layer id="205" name="Constant_17418" type="Convert" version="opset1">
			<data destination_type="f32" />
			<rt_info>
				<attribute name="decompression" version="0" />
			</rt_info>
			<input>
				<port id="0" precision="FP16">
					<dim>1</dim>
					<dim>1</dim>
					<dim>1</dim>
					<dim>192</dim>
				</port>
			</input>
			<output>
				<port id="1" precision="FP32">
					<dim>1</dim>
					<dim>1</dim>
					<dim>1</dim>
					<dim>192</dim>
				</port>
			</output>
		</layer>
		<layer id="206" name="aten::layer_norm/Multiply_6" type="Multiply" version="opset1">
			<data auto_broadcast="numpy" />
			<input>
				<port id="0" precision="FP32">
					<dim>-1</dim>
					<dim>-1</dim>
					<dim>-1</dim>
					<dim>192</dim>
				</port>
				<port id="1" precision="FP32">
					<dim>1</dim>
					<dim>1</dim>
					<dim>1</dim>
					<dim>192</dim>
				</port>
			</input>
			<output>
				<port id="2" precision="FP32">
					<dim>-1</dim>
					<dim>-1</dim>
					<dim>-1</dim>
					<dim>192</dim>
				</port>
			</output>
		</layer>
		<layer id="207" name="Constant_17419_compressed" type="Const" version="opset1">
			<data element_type="f16" shape="1, 1, 1, 192" offset="1277796" size="384" />
			<output>
				<port id="0" precision="FP16">
					<dim>1</dim>
					<dim>1</dim>
					<dim>1</dim>
					<dim>192</dim>
				</port>
			</output>
		</layer>
		<layer id="208" name="Constant_17419" type="Convert" version="opset1">
			<data destination_type="f32" />
			<rt_info>
				<attribute name="decompression" version="0" />
			</rt_info>
			<input>
				<port id="0" precision="FP16">
					<dim>1</dim>
					<dim>1</dim>
					<dim>1</dim>
					<dim>192</dim>
				</port>
			</input>
			<output>
				<port id="1" precision="FP32">
					<dim>1</dim>
					<dim>1</dim>
					<dim>1</dim>
					<dim>192</dim>
				</port>
			</output>
		</layer>
		<layer id="209" name="aten::layer_norm/Add_6" type="Add" version="opset1">
			<data auto_broadcast="numpy" />
			<input>
				<port id="0" precision="FP32">
					<dim>-1</dim>
					<dim>-1</dim>
					<dim>-1</dim>
					<dim>192</dim>
				</port>
				<port id="1" precision="FP32">
					<dim>1</dim>
					<dim>1</dim>
					<dim>1</dim>
					<dim>192</dim>
				</port>
			</input>
			<output>
				<port id="2" precision="FP32" names="256,input.105">
					<dim>-1</dim>
					<dim>-1</dim>
					<dim>-1</dim>
					<dim>192</dim>
				</port>
			</output>
		</layer>
		<layer id="210" name="self.feature_extractor.features.3.1.block.3.weight_compressed" type="Const" version="opset1">
			<data element_type="f16" shape="768, 192" offset="1278180" size="294912" />
			<output>
				<port id="0" precision="FP16" names="157,self.feature_extractor.features.3.1.block.3.weight">
					<dim>768</dim>
					<dim>192</dim>
				</port>
			</output>
		</layer>
		<layer id="211" name="self.feature_extractor.features.3.1.block.3.weight" type="Convert" version="opset1">
			<data destination_type="f32" />
			<rt_info>
				<attribute name="decompression" version="0" />
			</rt_info>
			<input>
				<port id="0" precision="FP16">
					<dim>768</dim>
					<dim>192</dim>
				</port>
			</input>
			<output>
				<port id="1" precision="FP32">
					<dim>768</dim>
					<dim>192</dim>
				</port>
			</output>
		</layer>
		<layer id="212" name="aten::linear/MatMul_8" type="MatMul" version="opset1">
			<data transpose_a="false" transpose_b="true" />
			<input>
				<port id="0" precision="FP32">
					<dim>-1</dim>
					<dim>-1</dim>
					<dim>-1</dim>
					<dim>192</dim>
				</port>
				<port id="1" precision="FP32">
					<dim>768</dim>
					<dim>192</dim>
				</port>
			</input>
			<output>
				<port id="2" precision="FP32">
					<dim>-1</dim>
					<dim>-1</dim>
					<dim>-1</dim>
					<dim>768</dim>
				</port>
			</output>
		</layer>
		<layer id="213" name="Constant_17420_compressed" type="Const" version="opset1">
			<data element_type="f16" shape="1, 1, 1, 768" offset="1573092" size="1536" />
			<output>
				<port id="0" precision="FP16">
					<dim>1</dim>
					<dim>1</dim>
					<dim>1</dim>
					<dim>768</dim>
				</port>
			</output>
		</layer>
		<layer id="214" name="Constant_17420" type="Convert" version="opset1">
			<data destination_type="f32" />
			<rt_info>
				<attribute name="decompression" version="0" />
			</rt_info>
			<input>
				<port id="0" precision="FP16">
					<dim>1</dim>
					<dim>1</dim>
					<dim>1</dim>
					<dim>768</dim>
				</port>
			</input>
			<output>
				<port id="1" precision="FP32">
					<dim>1</dim>
					<dim>1</dim>
					<dim>1</dim>
					<dim>768</dim>
				</port>
			</output>
		</layer>
		<layer id="215" name="aten::linear/Add_8" type="Add" version="opset1">
			<data auto_broadcast="numpy" />
			<input>
				<port id="0" precision="FP32">
					<dim>-1</dim>
					<dim>-1</dim>
					<dim>-1</dim>
					<dim>768</dim>
				</port>
				<port id="1" precision="FP32">
					<dim>1</dim>
					<dim>1</dim>
					<dim>1</dim>
					<dim>768</dim>
				</port>
			</input>
			<output>
				<port id="2" precision="FP32" names="257,input.107">
					<dim>-1</dim>
					<dim>-1</dim>
					<dim>-1</dim>
					<dim>768</dim>
				</port>
			</output>
		</layer>
		<layer id="216" name="aten::gelu/Gelu_4" type="Gelu" version="opset7">
			<data approximation_mode="ERF" />
			<input>
				<port id="0" precision="FP32">
					<dim>-1</dim>
					<dim>-1</dim>
					<dim>-1</dim>
					<dim>768</dim>
				</port>
			</input>
			<output>
				<port id="1" precision="FP32" names="258,input.109">
					<dim>-1</dim>
					<dim>-1</dim>
					<dim>-1</dim>
					<dim>768</dim>
				</port>
			</output>
		</layer>
		<layer id="217" name="self.feature_extractor.features.3.1.block.5.weight_compressed" type="Const" version="opset1">
			<data element_type="f16" shape="192, 768" offset="1574628" size="294912" />
			<output>
				<port id="0" precision="FP16" names="155,self.feature_extractor.features.3.1.block.5.weight">
					<dim>192</dim>
					<dim>768</dim>
				</port>
			</output>
		</layer>
		<layer id="218" name="self.feature_extractor.features.3.1.block.5.weight" type="Convert" version="opset1">
			<data destination_type="f32" />
			<rt_info>
				<attribute name="decompression" version="0" />
			</rt_info>
			<input>
				<port id="0" precision="FP16">
					<dim>192</dim>
					<dim>768</dim>
				</port>
			</input>
			<output>
				<port id="1" precision="FP32">
					<dim>192</dim>
					<dim>768</dim>
				</port>
			</output>
		</layer>
		<layer id="219" name="aten::linear/MatMul_9" type="MatMul" version="opset1">
			<data transpose_a="false" transpose_b="true" />
			<input>
				<port id="0" precision="FP32">
					<dim>-1</dim>
					<dim>-1</dim>
					<dim>-1</dim>
					<dim>768</dim>
				</port>
				<port id="1" precision="FP32">
					<dim>192</dim>
					<dim>768</dim>
				</port>
			</input>
			<output>
				<port id="2" precision="FP32">
					<dim>-1</dim>
					<dim>-1</dim>
					<dim>-1</dim>
					<dim>192</dim>
				</port>
			</output>
		</layer>
		<layer id="220" name="Constant_17421_compressed" type="Const" version="opset1">
			<data element_type="f16" shape="1, 1, 1, 192" offset="1869540" size="384" />
			<output>
				<port id="0" precision="FP16">
					<dim>1</dim>
					<dim>1</dim>
					<dim>1</dim>
					<dim>192</dim>
				</port>
			</output>
		</layer>
		<layer id="221" name="Constant_17421" type="Convert" version="opset1">
			<data destination_type="f32" />
			<rt_info>
				<attribute name="decompression" version="0" />
			</rt_info>
			<input>
				<port id="0" precision="FP16">
					<dim>1</dim>
					<dim>1</dim>
					<dim>1</dim>
					<dim>192</dim>
				</port>
			</input>
			<output>
				<port id="1" precision="FP32">
					<dim>1</dim>
					<dim>1</dim>
					<dim>1</dim>
					<dim>192</dim>
				</port>
			</output>
		</layer>
		<layer id="222" name="aten::linear/Add_9" type="Add" version="opset1">
			<data auto_broadcast="numpy" />
			<input>
				<port id="0" precision="FP32">
					<dim>-1</dim>
					<dim>-1</dim>
					<dim>-1</dim>
					<dim>192</dim>
				</port>
				<port id="1" precision="FP32">
					<dim>1</dim>
					<dim>1</dim>
					<dim>1</dim>
					<dim>192</dim>
				</port>
			</input>
			<output>
				<port id="2" precision="FP32" names="259,input.111">
					<dim>-1</dim>
					<dim>-1</dim>
					<dim>-1</dim>
					<dim>192</dim>
				</port>
			</output>
		</layer>
		<layer id="223" name="aten::permute/Transpose_13" type="Transpose" version="opset1">
			<input>
				<port id="0" precision="FP32">
					<dim>-1</dim>
					<dim>-1</dim>
					<dim>-1</dim>
					<dim>192</dim>
				</port>
				<port id="1" precision="I32">
					<dim>4</dim>
				</port>
			</input>
			<output>
				<port id="2" precision="FP32" names="260,input.113">
					<dim>-1</dim>
					<dim>192</dim>
					<dim>-1</dim>
					<dim>-1</dim>
				</port>
			</output>
		</layer>
		<layer id="224" name="aten::mul/Multiply_4" type="Multiply" version="opset1">
			<data auto_broadcast="numpy" />
			<input>
				<port id="0" precision="FP32">
					<dim>1</dim>
					<dim>192</dim>
					<dim>1</dim>
					<dim>1</dim>
				</port>
				<port id="1" precision="FP32">
					<dim>-1</dim>
					<dim>192</dim>
					<dim>-1</dim>
					<dim>-1</dim>
				</port>
			</input>
			<output>
				<port id="2" precision="FP32" names="261_1">
					<dim>-1</dim>
					<dim>192</dim>
					<dim>-1</dim>
					<dim>-1</dim>
				</port>
			</output>
		</layer>
		<layer id="225" name="aten::add_/Add_4" type="Add" version="opset1">
			<data auto_broadcast="numpy" />
			<input>
				<port id="0" precision="FP32">
					<dim>-1</dim>
					<dim>192</dim>
					<dim>-1</dim>
					<dim>-1</dim>
				</port>
				<port id="1" precision="FP32">
					<dim>-1</dim>
					<dim>192</dim>
					<dim>-1</dim>
					<dim>-1</dim>
				</port>
			</input>
			<output>
				<port id="2" precision="FP32" names="261,result.21">
					<dim>-1</dim>
					<dim>192</dim>
					<dim>-1</dim>
					<dim>-1</dim>
				</port>
			</output>
		</layer>
		<layer id="226" name="Reshape_13804_compressed" type="Const" version="opset1">
			<data element_type="f16" shape="192, 1, 1, 7, 7" offset="1869924" size="18816" />
			<output>
				<port id="0" precision="FP16">
					<dim>192</dim>
					<dim>1</dim>
					<dim>1</dim>
					<dim>7</dim>
					<dim>7</dim>
				</port>
			</output>
		</layer>
		<layer id="227" name="Reshape_13804" type="Convert" version="opset1">
			<data destination_type="f32" />
			<rt_info>
				<attribute name="decompression" version="0" />
			</rt_info>
			<input>
				<port id="0" precision="FP16">
					<dim>192</dim>
					<dim>1</dim>
					<dim>1</dim>
					<dim>7</dim>
					<dim>7</dim>
				</port>
			</input>
			<output>
				<port id="1" precision="FP32">
					<dim>192</dim>
					<dim>1</dim>
					<dim>1</dim>
					<dim>7</dim>
					<dim>7</dim>
				</port>
			</output>
		</layer>
		<layer id="228" name="GroupConvolution_13845" type="GroupConvolution" version="opset1">
			<data strides="1, 1" pads_begin="3, 3" pads_end="3, 3" dilations="1, 1" auto_pad="explicit" />
			<input>
				<port id="0" precision="FP32">
					<dim>-1</dim>
					<dim>192</dim>
					<dim>-1</dim>
					<dim>-1</dim>
				</port>
				<port id="1" precision="FP32">
					<dim>192</dim>
					<dim>1</dim>
					<dim>1</dim>
					<dim>7</dim>
					<dim>7</dim>
				</port>
			</input>
			<output>
				<port id="2" precision="FP32">
					<dim>-1</dim>
					<dim>192</dim>
					<dim>-1</dim>
					<dim>-1</dim>
				</port>
			</output>
		</layer>
		<layer id="229" name="aten::conv2d/Reshape_7_compressed" type="Const" version="opset1">
			<data element_type="f16" shape="1, 192, 1, 1" offset="1888740" size="384" />
			<output>
				<port id="0" precision="FP16">
					<dim>1</dim>
					<dim>192</dim>
					<dim>1</dim>
					<dim>1</dim>
				</port>
			</output>
		</layer>
		<layer id="230" name="aten::conv2d/Reshape_7" type="Convert" version="opset1">
			<data destination_type="f32" />
			<rt_info>
				<attribute name="decompression" version="0" />
			</rt_info>
			<input>
				<port id="0" precision="FP16">
					<dim>1</dim>
					<dim>192</dim>
					<dim>1</dim>
					<dim>1</dim>
				</port>
			</input>
			<output>
				<port id="1" precision="FP32">
					<dim>1</dim>
					<dim>192</dim>
					<dim>1</dim>
					<dim>1</dim>
				</port>
			</output>
		</layer>
		<layer id="231" name="aten::conv2d/Add_7" type="Add" version="opset1">
			<data auto_broadcast="numpy" />
			<input>
				<port id="0" precision="FP32">
					<dim>-1</dim>
					<dim>192</dim>
					<dim>-1</dim>
					<dim>-1</dim>
				</port>
				<port id="1" precision="FP32">
					<dim>1</dim>
					<dim>192</dim>
					<dim>1</dim>
					<dim>1</dim>
				</port>
			</input>
			<output>
				<port id="2" precision="FP32" names="263,input.95">
					<dim>-1</dim>
					<dim>192</dim>
					<dim>-1</dim>
					<dim>-1</dim>
				</port>
			</output>
		</layer>
		<layer id="232" name="aten::permute/Transpose_14" type="Transpose" version="opset1">
			<input>
				<port id="0" precision="FP32">
					<dim>-1</dim>
					<dim>192</dim>
					<dim>-1</dim>
					<dim>-1</dim>
				</port>
				<port id="1" precision="I32">
					<dim>4</dim>
				</port>
			</input>
			<output>
				<port id="2" precision="FP32" names="264,input.97">
					<dim>-1</dim>
					<dim>-1</dim>
					<dim>-1</dim>
					<dim>192</dim>
				</port>
			</output>
		</layer>
		<layer id="233" name="aten::layer_norm/Constant_7" type="Const" version="opset1">
			<data element_type="i32" shape="1" offset="22672" size="4" />
			<output>
				<port id="0" precision="I32">
					<dim>1</dim>
				</port>
			</output>
		</layer>
		<layer id="234" name="aten::layer_norm/MVN_7" type="MVN" version="opset6">
			<data eps="9.9999999747524271e-07" normalize_variance="true" eps_mode="INSIDE_SQRT" />
			<input>
				<port id="0" precision="FP32">
					<dim>-1</dim>
					<dim>-1</dim>
					<dim>-1</dim>
					<dim>192</dim>
				</port>
				<port id="1" precision="I32">
					<dim>1</dim>
				</port>
			</input>
			<output>
				<port id="2" precision="FP32">
					<dim>-1</dim>
					<dim>-1</dim>
					<dim>-1</dim>
					<dim>192</dim>
				</port>
			</output>
		</layer>
		<layer id="235" name="Constant_17423_compressed" type="Const" version="opset1">
			<data element_type="f16" shape="1, 1, 1, 192" offset="1889124" size="384" />
			<output>
				<port id="0" precision="FP16">
					<dim>1</dim>
					<dim>1</dim>
					<dim>1</dim>
					<dim>192</dim>
				</port>
			</output>
		</layer>
		<layer id="236" name="Constant_17423" type="Convert" version="opset1">
			<data destination_type="f32" />
			<rt_info>
				<attribute name="decompression" version="0" />
			</rt_info>
			<input>
				<port id="0" precision="FP16">
					<dim>1</dim>
					<dim>1</dim>
					<dim>1</dim>
					<dim>192</dim>
				</port>
			</input>
			<output>
				<port id="1" precision="FP32">
					<dim>1</dim>
					<dim>1</dim>
					<dim>1</dim>
					<dim>192</dim>
				</port>
			</output>
		</layer>
		<layer id="237" name="aten::layer_norm/Multiply_7" type="Multiply" version="opset1">
			<data auto_broadcast="numpy" />
			<input>
				<port id="0" precision="FP32">
					<dim>-1</dim>
					<dim>-1</dim>
					<dim>-1</dim>
					<dim>192</dim>
				</port>
				<port id="1" precision="FP32">
					<dim>1</dim>
					<dim>1</dim>
					<dim>1</dim>
					<dim>192</dim>
				</port>
			</input>
			<output>
				<port id="2" precision="FP32">
					<dim>-1</dim>
					<dim>-1</dim>
					<dim>-1</dim>
					<dim>192</dim>
				</port>
			</output>
		</layer>
		<layer id="238" name="Constant_17424_compressed" type="Const" version="opset1">
			<data element_type="f16" shape="1, 1, 1, 192" offset="1889508" size="384" />
			<output>
				<port id="0" precision="FP16">
					<dim>1</dim>
					<dim>1</dim>
					<dim>1</dim>
					<dim>192</dim>
				</port>
			</output>
		</layer>
		<layer id="239" name="Constant_17424" type="Convert" version="opset1">
			<data destination_type="f32" />
			<rt_info>
				<attribute name="decompression" version="0" />
			</rt_info>
			<input>
				<port id="0" precision="FP16">
					<dim>1</dim>
					<dim>1</dim>
					<dim>1</dim>
					<dim>192</dim>
				</port>
			</input>
			<output>
				<port id="1" precision="FP32">
					<dim>1</dim>
					<dim>1</dim>
					<dim>1</dim>
					<dim>192</dim>
				</port>
			</output>
		</layer>
		<layer id="240" name="aten::layer_norm/Add_7" type="Add" version="opset1">
			<data auto_broadcast="numpy" />
			<input>
				<port id="0" precision="FP32">
					<dim>-1</dim>
					<dim>-1</dim>
					<dim>-1</dim>
					<dim>192</dim>
				</port>
				<port id="1" precision="FP32">
					<dim>1</dim>
					<dim>1</dim>
					<dim>1</dim>
					<dim>192</dim>
				</port>
			</input>
			<output>
				<port id="2" precision="FP32" names="265,input.131">
					<dim>-1</dim>
					<dim>-1</dim>
					<dim>-1</dim>
					<dim>192</dim>
				</port>
			</output>
		</layer>
		<layer id="241" name="self.feature_extractor.features.3.2.block.3.weight_compressed" type="Const" version="opset1">
			<data element_type="f16" shape="768, 192" offset="1889892" size="294912" />
			<output>
				<port id="0" precision="FP16" names="148,self.feature_extractor.features.3.2.block.3.weight">
					<dim>768</dim>
					<dim>192</dim>
				</port>
			</output>
		</layer>
		<layer id="242" name="self.feature_extractor.features.3.2.block.3.weight" type="Convert" version="opset1">
			<data destination_type="f32" />
			<rt_info>
				<attribute name="decompression" version="0" />
			</rt_info>
			<input>
				<port id="0" precision="FP16">
					<dim>768</dim>
					<dim>192</dim>
				</port>
			</input>
			<output>
				<port id="1" precision="FP32">
					<dim>768</dim>
					<dim>192</dim>
				</port>
			</output>
		</layer>
		<layer id="243" name="aten::linear/MatMul_10" type="MatMul" version="opset1">
			<data transpose_a="false" transpose_b="true" />
			<input>
				<port id="0" precision="FP32">
					<dim>-1</dim>
					<dim>-1</dim>
					<dim>-1</dim>
					<dim>192</dim>
				</port>
				<port id="1" precision="FP32">
					<dim>768</dim>
					<dim>192</dim>
				</port>
			</input>
			<output>
				<port id="2" precision="FP32">
					<dim>-1</dim>
					<dim>-1</dim>
					<dim>-1</dim>
					<dim>768</dim>
				</port>
			</output>
		</layer>
		<layer id="244" name="Constant_17425_compressed" type="Const" version="opset1">
			<data element_type="f16" shape="1, 1, 1, 768" offset="2184804" size="1536" />
			<output>
				<port id="0" precision="FP16">
					<dim>1</dim>
					<dim>1</dim>
					<dim>1</dim>
					<dim>768</dim>
				</port>
			</output>
		</layer>
		<layer id="245" name="Constant_17425" type="Convert" version="opset1">
			<data destination_type="f32" />
			<rt_info>
				<attribute name="decompression" version="0" />
			</rt_info>
			<input>
				<port id="0" precision="FP16">
					<dim>1</dim>
					<dim>1</dim>
					<dim>1</dim>
					<dim>768</dim>
				</port>
			</input>
			<output>
				<port id="1" precision="FP32">
					<dim>1</dim>
					<dim>1</dim>
					<dim>1</dim>
					<dim>768</dim>
				</port>
			</output>
		</layer>
		<layer id="246" name="aten::linear/Add_10" type="Add" version="opset1">
			<data auto_broadcast="numpy" />
			<input>
				<port id="0" precision="FP32">
					<dim>-1</dim>
					<dim>-1</dim>
					<dim>-1</dim>
					<dim>768</dim>
				</port>
				<port id="1" precision="FP32">
					<dim>1</dim>
					<dim>1</dim>
					<dim>1</dim>
					<dim>768</dim>
				</port>
			</input>
			<output>
				<port id="2" precision="FP32" names="266,input.133">
					<dim>-1</dim>
					<dim>-1</dim>
					<dim>-1</dim>
					<dim>768</dim>
				</port>
			</output>
		</layer>
		<layer id="247" name="aten::gelu/Gelu_5" type="Gelu" version="opset7">
			<data approximation_mode="ERF" />
			<input>
				<port id="0" precision="FP32">
					<dim>-1</dim>
					<dim>-1</dim>
					<dim>-1</dim>
					<dim>768</dim>
				</port>
			</input>
			<output>
				<port id="1" precision="FP32" names="267,input.135">
					<dim>-1</dim>
					<dim>-1</dim>
					<dim>-1</dim>
					<dim>768</dim>
				</port>
			</output>
		</layer>
		<layer id="248" name="self.feature_extractor.features.3.2.block.5.weight_compressed" type="Const" version="opset1">
			<data element_type="f16" shape="192, 768" offset="2186340" size="294912" />
			<output>
				<port id="0" precision="FP16" names="146,self.feature_extractor.features.3.2.block.5.weight">
					<dim>192</dim>
					<dim>768</dim>
				</port>
			</output>
		</layer>
		<layer id="249" name="self.feature_extractor.features.3.2.block.5.weight" type="Convert" version="opset1">
			<data destination_type="f32" />
			<rt_info>
				<attribute name="decompression" version="0" />
			</rt_info>
			<input>
				<port id="0" precision="FP16">
					<dim>192</dim>
					<dim>768</dim>
				</port>
			</input>
			<output>
				<port id="1" precision="FP32">
					<dim>192</dim>
					<dim>768</dim>
				</port>
			</output>
		</layer>
		<layer id="250" name="aten::linear/MatMul_11" type="MatMul" version="opset1">
			<data transpose_a="false" transpose_b="true" />
			<input>
				<port id="0" precision="FP32">
					<dim>-1</dim>
					<dim>-1</dim>
					<dim>-1</dim>
					<dim>768</dim>
				</port>
				<port id="1" precision="FP32">
					<dim>192</dim>
					<dim>768</dim>
				</port>
			</input>
			<output>
				<port id="2" precision="FP32">
					<dim>-1</dim>
					<dim>-1</dim>
					<dim>-1</dim>
					<dim>192</dim>
				</port>
			</output>
		</layer>
		<layer id="251" name="Constant_17426_compressed" type="Const" version="opset1">
			<data element_type="f16" shape="1, 1, 1, 192" offset="2481252" size="384" />
			<output>
				<port id="0" precision="FP16">
					<dim>1</dim>
					<dim>1</dim>
					<dim>1</dim>
					<dim>192</dim>
				</port>
			</output>
		</layer>
		<layer id="252" name="Constant_17426" type="Convert" version="opset1">
			<data destination_type="f32" />
			<rt_info>
				<attribute name="decompression" version="0" />
			</rt_info>
			<input>
				<port id="0" precision="FP16">
					<dim>1</dim>
					<dim>1</dim>
					<dim>1</dim>
					<dim>192</dim>
				</port>
			</input>
			<output>
				<port id="1" precision="FP32">
					<dim>1</dim>
					<dim>1</dim>
					<dim>1</dim>
					<dim>192</dim>
				</port>
			</output>
		</layer>
		<layer id="253" name="aten::linear/Add_11" type="Add" version="opset1">
			<data auto_broadcast="numpy" />
			<input>
				<port id="0" precision="FP32">
					<dim>-1</dim>
					<dim>-1</dim>
					<dim>-1</dim>
					<dim>192</dim>
				</port>
				<port id="1" precision="FP32">
					<dim>1</dim>
					<dim>1</dim>
					<dim>1</dim>
					<dim>192</dim>
				</port>
			</input>
			<output>
				<port id="2" precision="FP32" names="268,input.137">
					<dim>-1</dim>
					<dim>-1</dim>
					<dim>-1</dim>
					<dim>192</dim>
				</port>
			</output>
		</layer>
		<layer id="254" name="aten::permute/Transpose_15" type="Transpose" version="opset1">
			<input>
				<port id="0" precision="FP32">
					<dim>-1</dim>
					<dim>-1</dim>
					<dim>-1</dim>
					<dim>192</dim>
				</port>
				<port id="1" precision="I32">
					<dim>4</dim>
				</port>
			</input>
			<output>
				<port id="2" precision="FP32" names="269,input.139">
					<dim>-1</dim>
					<dim>192</dim>
					<dim>-1</dim>
					<dim>-1</dim>
				</port>
			</output>
		</layer>
		<layer id="255" name="aten::mul/Multiply_5" type="Multiply" version="opset1">
			<data auto_broadcast="numpy" />
			<input>
				<port id="0" precision="FP32">
					<dim>1</dim>
					<dim>192</dim>
					<dim>1</dim>
					<dim>1</dim>
				</port>
				<port id="1" precision="FP32">
					<dim>-1</dim>
					<dim>192</dim>
					<dim>-1</dim>
					<dim>-1</dim>
				</port>
			</input>
			<output>
				<port id="2" precision="FP32" names="270_1">
					<dim>-1</dim>
					<dim>192</dim>
					<dim>-1</dim>
					<dim>-1</dim>
				</port>
			</output>
		</layer>
		<layer id="256" name="aten::add_/Add_5" type="Add" version="opset1">
			<data auto_broadcast="numpy" />
			<input>
				<port id="0" precision="FP32">
					<dim>-1</dim>
					<dim>192</dim>
					<dim>-1</dim>
					<dim>-1</dim>
				</port>
				<port id="1" precision="FP32">
					<dim>-1</dim>
					<dim>192</dim>
					<dim>-1</dim>
					<dim>-1</dim>
				</port>
			</input>
			<output>
				<port id="2" precision="FP32" names="270,result.25">
					<dim>-1</dim>
					<dim>192</dim>
					<dim>-1</dim>
					<dim>-1</dim>
				</port>
			</output>
		</layer>
		<layer id="257" name="aten::permute/Transpose_16" type="Transpose" version="opset1">
			<input>
				<port id="0" precision="FP32">
					<dim>-1</dim>
					<dim>192</dim>
					<dim>-1</dim>
					<dim>-1</dim>
				</port>
				<port id="1" precision="I32">
					<dim>4</dim>
				</port>
			</input>
			<output>
				<port id="2" precision="FP32" names="272,x.16">
					<dim>-1</dim>
					<dim>-1</dim>
					<dim>-1</dim>
					<dim>192</dim>
				</port>
			</output>
		</layer>
		<layer id="258" name="aten::layer_norm/Constant_8" type="Const" version="opset1">
			<data element_type="i32" shape="1" offset="22672" size="4" />
			<output>
				<port id="0" precision="I32">
					<dim>1</dim>
				</port>
			</output>
		</layer>
		<layer id="259" name="aten::layer_norm/MVN_8" type="MVN" version="opset6">
			<data eps="9.9999999747524271e-07" normalize_variance="true" eps_mode="INSIDE_SQRT" />
			<input>
				<port id="0" precision="FP32">
					<dim>-1</dim>
					<dim>-1</dim>
					<dim>-1</dim>
					<dim>192</dim>
				</port>
				<port id="1" precision="I32">
					<dim>1</dim>
				</port>
			</input>
			<output>
				<port id="2" precision="FP32">
					<dim>-1</dim>
					<dim>-1</dim>
					<dim>-1</dim>
					<dim>192</dim>
				</port>
			</output>
		</layer>
		<layer id="260" name="Constant_17428_compressed" type="Const" version="opset1">
			<data element_type="f16" shape="1, 1, 1, 192" offset="2481636" size="384" />
			<output>
				<port id="0" precision="FP16">
					<dim>1</dim>
					<dim>1</dim>
					<dim>1</dim>
					<dim>192</dim>
				</port>
			</output>
		</layer>
		<layer id="261" name="Constant_17428" type="Convert" version="opset1">
			<data destination_type="f32" />
			<rt_info>
				<attribute name="decompression" version="0" />
			</rt_info>
			<input>
				<port id="0" precision="FP16">
					<dim>1</dim>
					<dim>1</dim>
					<dim>1</dim>
					<dim>192</dim>
				</port>
			</input>
			<output>
				<port id="1" precision="FP32">
					<dim>1</dim>
					<dim>1</dim>
					<dim>1</dim>
					<dim>192</dim>
				</port>
			</output>
		</layer>
		<layer id="262" name="aten::layer_norm/Multiply_8" type="Multiply" version="opset1">
			<data auto_broadcast="numpy" />
			<input>
				<port id="0" precision="FP32">
					<dim>-1</dim>
					<dim>-1</dim>
					<dim>-1</dim>
					<dim>192</dim>
				</port>
				<port id="1" precision="FP32">
					<dim>1</dim>
					<dim>1</dim>
					<dim>1</dim>
					<dim>192</dim>
				</port>
			</input>
			<output>
				<port id="2" precision="FP32">
					<dim>-1</dim>
					<dim>-1</dim>
					<dim>-1</dim>
					<dim>192</dim>
				</port>
			</output>
		</layer>
		<layer id="263" name="Constant_17429_compressed" type="Const" version="opset1">
			<data element_type="f16" shape="1, 1, 1, 192" offset="2482020" size="384" />
			<output>
				<port id="0" precision="FP16">
					<dim>1</dim>
					<dim>1</dim>
					<dim>1</dim>
					<dim>192</dim>
				</port>
			</output>
		</layer>
		<layer id="264" name="Constant_17429" type="Convert" version="opset1">
			<data destination_type="f32" />
			<rt_info>
				<attribute name="decompression" version="0" />
			</rt_info>
			<input>
				<port id="0" precision="FP16">
					<dim>1</dim>
					<dim>1</dim>
					<dim>1</dim>
					<dim>192</dim>
				</port>
			</input>
			<output>
				<port id="1" precision="FP32">
					<dim>1</dim>
					<dim>1</dim>
					<dim>1</dim>
					<dim>192</dim>
				</port>
			</output>
		</layer>
		<layer id="265" name="aten::layer_norm/Add_8" type="Add" version="opset1">
			<data auto_broadcast="numpy" />
			<input>
				<port id="0" precision="FP32">
					<dim>-1</dim>
					<dim>-1</dim>
					<dim>-1</dim>
					<dim>192</dim>
				</port>
				<port id="1" precision="FP32">
					<dim>1</dim>
					<dim>1</dim>
					<dim>1</dim>
					<dim>192</dim>
				</port>
			</input>
			<output>
				<port id="2" precision="FP32" names="273,x.18">
					<dim>-1</dim>
					<dim>-1</dim>
					<dim>-1</dim>
					<dim>192</dim>
				</port>
			</output>
		</layer>
		<layer id="266" name="aten::permute/Transpose_17" type="Transpose" version="opset1">
			<input>
				<port id="0" precision="FP32">
					<dim>-1</dim>
					<dim>-1</dim>
					<dim>-1</dim>
					<dim>192</dim>
				</port>
				<port id="1" precision="I32">
					<dim>4</dim>
				</port>
			</input>
			<output>
				<port id="2" precision="FP32" names="274,input.129">
					<dim>-1</dim>
					<dim>192</dim>
					<dim>-1</dim>
					<dim>-1</dim>
				</port>
			</output>
		</layer>
		<layer id="267" name="self.feature_extractor.features.4.1.weight_compressed" type="Const" version="opset1">
			<data element_type="f16" shape="384, 192, 2, 2" offset="2482404" size="589824" />
			<output>
				<port id="0" precision="FP16" names="142,self.feature_extractor.features.4.1.weight">
					<dim>384</dim>
					<dim>192</dim>
					<dim>2</dim>
					<dim>2</dim>
				</port>
			</output>
		</layer>
		<layer id="268" name="self.feature_extractor.features.4.1.weight" type="Convert" version="opset1">
			<data destination_type="f32" />
			<rt_info>
				<attribute name="decompression" version="0" />
			</rt_info>
			<input>
				<port id="0" precision="FP16">
					<dim>384</dim>
					<dim>192</dim>
					<dim>2</dim>
					<dim>2</dim>
				</port>
			</input>
			<output>
				<port id="1" precision="FP32">
					<dim>384</dim>
					<dim>192</dim>
					<dim>2</dim>
					<dim>2</dim>
				</port>
			</output>
		</layer>
		<layer id="269" name="Convolution_13885" type="Convolution" version="opset1">
			<data strides="2, 2" dilations="1, 1" pads_begin="0, 0" pads_end="0, 0" auto_pad="explicit" />
			<input>
				<port id="0" precision="FP32">
					<dim>-1</dim>
					<dim>192</dim>
					<dim>-1</dim>
					<dim>-1</dim>
				</port>
				<port id="1" precision="FP32">
					<dim>384</dim>
					<dim>192</dim>
					<dim>2</dim>
					<dim>2</dim>
				</port>
			</input>
			<output>
				<port id="2" precision="FP32">
					<dim>-1</dim>
					<dim>384</dim>
					<dim>-1</dim>
					<dim>-1</dim>
				</port>
			</output>
		</layer>
		<layer id="270" name="aten::conv2d/Reshape_8_compressed" type="Const" version="opset1">
			<data element_type="f16" shape="1, 384, 1, 1" offset="3072228" size="768" />
			<output>
				<port id="0" precision="FP16">
					<dim>1</dim>
					<dim>384</dim>
					<dim>1</dim>
					<dim>1</dim>
				</port>
			</output>
		</layer>
		<layer id="271" name="aten::conv2d/Reshape_8" type="Convert" version="opset1">
			<data destination_type="f32" />
			<rt_info>
				<attribute name="decompression" version="0" />
			</rt_info>
			<input>
				<port id="0" precision="FP16">
					<dim>1</dim>
					<dim>384</dim>
					<dim>1</dim>
					<dim>1</dim>
				</port>
			</input>
			<output>
				<port id="1" precision="FP32">
					<dim>1</dim>
					<dim>384</dim>
					<dim>1</dim>
					<dim>1</dim>
				</port>
			</output>
		</layer>
		<layer id="272" name="aten::conv2d/Add_8" type="Add" version="opset1">
			<data auto_broadcast="numpy" />
			<input>
				<port id="0" precision="FP32">
					<dim>-1</dim>
					<dim>384</dim>
					<dim>-1</dim>
					<dim>-1</dim>
				</port>
				<port id="1" precision="FP32">
					<dim>1</dim>
					<dim>384</dim>
					<dim>1</dim>
					<dim>1</dim>
				</port>
			</input>
			<output>
				<port id="2" precision="FP32" names="275,input.31">
					<dim>-1</dim>
					<dim>384</dim>
					<dim>-1</dim>
					<dim>-1</dim>
				</port>
			</output>
		</layer>
		<layer id="273" name="Reshape_13918_compressed" type="Const" version="opset1">
			<data element_type="f16" shape="384, 1, 1, 7, 7" offset="3072996" size="37632" />
			<output>
				<port id="0" precision="FP16">
					<dim>384</dim>
					<dim>1</dim>
					<dim>1</dim>
					<dim>7</dim>
					<dim>7</dim>
				</port>
			</output>
		</layer>
		<layer id="274" name="Reshape_13918" type="Convert" version="opset1">
			<data destination_type="f32" />
			<rt_info>
				<attribute name="decompression" version="0" />
			</rt_info>
			<input>
				<port id="0" precision="FP16">
					<dim>384</dim>
					<dim>1</dim>
					<dim>1</dim>
					<dim>7</dim>
					<dim>7</dim>
				</port>
			</input>
			<output>
				<port id="1" precision="FP32">
					<dim>384</dim>
					<dim>1</dim>
					<dim>1</dim>
					<dim>7</dim>
					<dim>7</dim>
				</port>
			</output>
		</layer>
		<layer id="275" name="GroupConvolution_13959" type="GroupConvolution" version="opset1">
			<data strides="1, 1" pads_begin="3, 3" pads_end="3, 3" dilations="1, 1" auto_pad="explicit" />
			<input>
				<port id="0" precision="FP32">
					<dim>-1</dim>
					<dim>384</dim>
					<dim>-1</dim>
					<dim>-1</dim>
				</port>
				<port id="1" precision="FP32">
					<dim>384</dim>
					<dim>1</dim>
					<dim>1</dim>
					<dim>7</dim>
					<dim>7</dim>
				</port>
			</input>
			<output>
				<port id="2" precision="FP32">
					<dim>-1</dim>
					<dim>384</dim>
					<dim>-1</dim>
					<dim>-1</dim>
				</port>
			</output>
		</layer>
		<layer id="276" name="aten::conv2d/Reshape_9_compressed" type="Const" version="opset1">
			<data element_type="f16" shape="1, 384, 1, 1" offset="3110628" size="768" />
			<output>
				<port id="0" precision="FP16">
					<dim>1</dim>
					<dim>384</dim>
					<dim>1</dim>
					<dim>1</dim>
				</port>
			</output>
		</layer>
		<layer id="277" name="aten::conv2d/Reshape_9" type="Convert" version="opset1">
			<data destination_type="f32" />
			<rt_info>
				<attribute name="decompression" version="0" />
			</rt_info>
			<input>
				<port id="0" precision="FP16">
					<dim>1</dim>
					<dim>384</dim>
					<dim>1</dim>
					<dim>1</dim>
				</port>
			</input>
			<output>
				<port id="1" precision="FP32">
					<dim>1</dim>
					<dim>384</dim>
					<dim>1</dim>
					<dim>1</dim>
				</port>
			</output>
		</layer>
		<layer id="278" name="aten::conv2d/Add_9" type="Add" version="opset1">
			<data auto_broadcast="numpy" />
			<input>
				<port id="0" precision="FP32">
					<dim>-1</dim>
					<dim>384</dim>
					<dim>-1</dim>
					<dim>-1</dim>
				</port>
				<port id="1" precision="FP32">
					<dim>1</dim>
					<dim>384</dim>
					<dim>1</dim>
					<dim>1</dim>
				</port>
			</input>
			<output>
				<port id="2" precision="FP32" names="276,input.167">
					<dim>-1</dim>
					<dim>384</dim>
					<dim>-1</dim>
					<dim>-1</dim>
				</port>
			</output>
		</layer>
		<layer id="279" name="aten::permute/Transpose_18" type="Transpose" version="opset1">
			<input>
				<port id="0" precision="FP32">
					<dim>-1</dim>
					<dim>384</dim>
					<dim>-1</dim>
					<dim>-1</dim>
				</port>
				<port id="1" precision="I32">
					<dim>4</dim>
				</port>
			</input>
			<output>
				<port id="2" precision="FP32" names="277,input.169">
					<dim>-1</dim>
					<dim>-1</dim>
					<dim>-1</dim>
					<dim>384</dim>
				</port>
			</output>
		</layer>
		<layer id="280" name="aten::layer_norm/Constant_9" type="Const" version="opset1">
			<data element_type="i32" shape="1" offset="22672" size="4" />
			<output>
				<port id="0" precision="I32">
					<dim>1</dim>
				</port>
			</output>
		</layer>
		<layer id="281" name="aten::layer_norm/MVN_9" type="MVN" version="opset6">
			<data eps="9.9999999747524271e-07" normalize_variance="true" eps_mode="INSIDE_SQRT" />
			<input>
				<port id="0" precision="FP32">
					<dim>-1</dim>
					<dim>-1</dim>
					<dim>-1</dim>
					<dim>384</dim>
				</port>
				<port id="1" precision="I32">
					<dim>1</dim>
				</port>
			</input>
			<output>
				<port id="2" precision="FP32">
					<dim>-1</dim>
					<dim>-1</dim>
					<dim>-1</dim>
					<dim>384</dim>
				</port>
			</output>
		</layer>
		<layer id="282" name="Constant_17430_compressed" type="Const" version="opset1">
			<data element_type="f16" shape="1, 1, 1, 384" offset="3111396" size="768" />
			<output>
				<port id="0" precision="FP16">
					<dim>1</dim>
					<dim>1</dim>
					<dim>1</dim>
					<dim>384</dim>
				</port>
			</output>
		</layer>
		<layer id="283" name="Constant_17430" type="Convert" version="opset1">
			<data destination_type="f32" />
			<rt_info>
				<attribute name="decompression" version="0" />
			</rt_info>
			<input>
				<port id="0" precision="FP16">
					<dim>1</dim>
					<dim>1</dim>
					<dim>1</dim>
					<dim>384</dim>
				</port>
			</input>
			<output>
				<port id="1" precision="FP32">
					<dim>1</dim>
					<dim>1</dim>
					<dim>1</dim>
					<dim>384</dim>
				</port>
			</output>
		</layer>
		<layer id="284" name="aten::layer_norm/Multiply_9" type="Multiply" version="opset1">
			<data auto_broadcast="numpy" />
			<input>
				<port id="0" precision="FP32">
					<dim>-1</dim>
					<dim>-1</dim>
					<dim>-1</dim>
					<dim>384</dim>
				</port>
				<port id="1" precision="FP32">
					<dim>1</dim>
					<dim>1</dim>
					<dim>1</dim>
					<dim>384</dim>
				</port>
			</input>
			<output>
				<port id="2" precision="FP32">
					<dim>-1</dim>
					<dim>-1</dim>
					<dim>-1</dim>
					<dim>384</dim>
				</port>
			</output>
		</layer>
		<layer id="285" name="Constant_17431_compressed" type="Const" version="opset1">
			<data element_type="f16" shape="1, 1, 1, 384" offset="3112164" size="768" />
			<output>
				<port id="0" precision="FP16">
					<dim>1</dim>
					<dim>1</dim>
					<dim>1</dim>
					<dim>384</dim>
				</port>
			</output>
		</layer>
		<layer id="286" name="Constant_17431" type="Convert" version="opset1">
			<data destination_type="f32" />
			<rt_info>
				<attribute name="decompression" version="0" />
			</rt_info>
			<input>
				<port id="0" precision="FP16">
					<dim>1</dim>
					<dim>1</dim>
					<dim>1</dim>
					<dim>384</dim>
				</port>
			</input>
			<output>
				<port id="1" precision="FP32">
					<dim>1</dim>
					<dim>1</dim>
					<dim>1</dim>
					<dim>384</dim>
				</port>
			</output>
		</layer>
		<layer id="287" name="aten::layer_norm/Add_9" type="Add" version="opset1">
			<data auto_broadcast="numpy" />
			<input>
				<port id="0" precision="FP32">
					<dim>-1</dim>
					<dim>-1</dim>
					<dim>-1</dim>
					<dim>384</dim>
				</port>
				<port id="1" precision="FP32">
					<dim>1</dim>
					<dim>1</dim>
					<dim>1</dim>
					<dim>384</dim>
				</port>
			</input>
			<output>
				<port id="2" precision="FP32" names="278,input.171">
					<dim>-1</dim>
					<dim>-1</dim>
					<dim>-1</dim>
					<dim>384</dim>
				</port>
			</output>
		</layer>
		<layer id="288" name="self.feature_extractor.features.5.0.block.3.weight_compressed" type="Const" version="opset1">
			<data element_type="f16" shape="1536, 384" offset="3112932" size="1179648" />
			<output>
				<port id="0" precision="FP16" names="135,self.feature_extractor.features.5.0.block.3.weight">
					<dim>1536</dim>
					<dim>384</dim>
				</port>
			</output>
		</layer>
		<layer id="289" name="self.feature_extractor.features.5.0.block.3.weight" type="Convert" version="opset1">
			<data destination_type="f32" />
			<rt_info>
				<attribute name="decompression" version="0" />
			</rt_info>
			<input>
				<port id="0" precision="FP16">
					<dim>1536</dim>
					<dim>384</dim>
				</port>
			</input>
			<output>
				<port id="1" precision="FP32">
					<dim>1536</dim>
					<dim>384</dim>
				</port>
			</output>
		</layer>
		<layer id="290" name="aten::linear/MatMul_12" type="MatMul" version="opset1">
			<data transpose_a="false" transpose_b="true" />
			<input>
				<port id="0" precision="FP32">
					<dim>-1</dim>
					<dim>-1</dim>
					<dim>-1</dim>
					<dim>384</dim>
				</port>
				<port id="1" precision="FP32">
					<dim>1536</dim>
					<dim>384</dim>
				</port>
			</input>
			<output>
				<port id="2" precision="FP32">
					<dim>-1</dim>
					<dim>-1</dim>
					<dim>-1</dim>
					<dim>1536</dim>
				</port>
			</output>
		</layer>
		<layer id="291" name="Constant_17432_compressed" type="Const" version="opset1">
			<data element_type="f16" shape="1, 1, 1, 1536" offset="4292580" size="3072" />
			<output>
				<port id="0" precision="FP16">
					<dim>1</dim>
					<dim>1</dim>
					<dim>1</dim>
					<dim>1536</dim>
				</port>
			</output>
		</layer>
		<layer id="292" name="Constant_17432" type="Convert" version="opset1">
			<data destination_type="f32" />
			<rt_info>
				<attribute name="decompression" version="0" />
			</rt_info>
			<input>
				<port id="0" precision="FP16">
					<dim>1</dim>
					<dim>1</dim>
					<dim>1</dim>
					<dim>1536</dim>
				</port>
			</input>
			<output>
				<port id="1" precision="FP32">
					<dim>1</dim>
					<dim>1</dim>
					<dim>1</dim>
					<dim>1536</dim>
				</port>
			</output>
		</layer>
		<layer id="293" name="aten::linear/Add_12" type="Add" version="opset1">
			<data auto_broadcast="numpy" />
			<input>
				<port id="0" precision="FP32">
					<dim>-1</dim>
					<dim>-1</dim>
					<dim>-1</dim>
					<dim>1536</dim>
				</port>
				<port id="1" precision="FP32">
					<dim>1</dim>
					<dim>1</dim>
					<dim>1</dim>
					<dim>1536</dim>
				</port>
			</input>
			<output>
				<port id="2" precision="FP32" names="279,input.173">
					<dim>-1</dim>
					<dim>-1</dim>
					<dim>-1</dim>
					<dim>1536</dim>
				</port>
			</output>
		</layer>
		<layer id="294" name="aten::gelu/Gelu_6" type="Gelu" version="opset7">
			<data approximation_mode="ERF" />
			<input>
				<port id="0" precision="FP32">
					<dim>-1</dim>
					<dim>-1</dim>
					<dim>-1</dim>
					<dim>1536</dim>
				</port>
			</input>
			<output>
				<port id="1" precision="FP32" names="280,input.175">
					<dim>-1</dim>
					<dim>-1</dim>
					<dim>-1</dim>
					<dim>1536</dim>
				</port>
			</output>
		</layer>
		<layer id="295" name="self.feature_extractor.features.5.0.block.5.weight_compressed" type="Const" version="opset1">
			<data element_type="f16" shape="384, 1536" offset="4295652" size="1179648" />
			<output>
				<port id="0" precision="FP16" names="133,self.feature_extractor.features.5.0.block.5.weight">
					<dim>384</dim>
					<dim>1536</dim>
				</port>
			</output>
		</layer>
		<layer id="296" name="self.feature_extractor.features.5.0.block.5.weight" type="Convert" version="opset1">
			<data destination_type="f32" />
			<rt_info>
				<attribute name="decompression" version="0" />
			</rt_info>
			<input>
				<port id="0" precision="FP16">
					<dim>384</dim>
					<dim>1536</dim>
				</port>
			</input>
			<output>
				<port id="1" precision="FP32">
					<dim>384</dim>
					<dim>1536</dim>
				</port>
			</output>
		</layer>
		<layer id="297" name="aten::linear/MatMul_13" type="MatMul" version="opset1">
			<data transpose_a="false" transpose_b="true" />
			<input>
				<port id="0" precision="FP32">
					<dim>-1</dim>
					<dim>-1</dim>
					<dim>-1</dim>
					<dim>1536</dim>
				</port>
				<port id="1" precision="FP32">
					<dim>384</dim>
					<dim>1536</dim>
				</port>
			</input>
			<output>
				<port id="2" precision="FP32">
					<dim>-1</dim>
					<dim>-1</dim>
					<dim>-1</dim>
					<dim>384</dim>
				</port>
			</output>
		</layer>
		<layer id="298" name="Constant_17433_compressed" type="Const" version="opset1">
			<data element_type="f16" shape="1, 1, 1, 384" offset="5475300" size="768" />
			<output>
				<port id="0" precision="FP16">
					<dim>1</dim>
					<dim>1</dim>
					<dim>1</dim>
					<dim>384</dim>
				</port>
			</output>
		</layer>
		<layer id="299" name="Constant_17433" type="Convert" version="opset1">
			<data destination_type="f32" />
			<rt_info>
				<attribute name="decompression" version="0" />
			</rt_info>
			<input>
				<port id="0" precision="FP16">
					<dim>1</dim>
					<dim>1</dim>
					<dim>1</dim>
					<dim>384</dim>
				</port>
			</input>
			<output>
				<port id="1" precision="FP32">
					<dim>1</dim>
					<dim>1</dim>
					<dim>1</dim>
					<dim>384</dim>
				</port>
			</output>
		</layer>
		<layer id="300" name="aten::linear/Add_13" type="Add" version="opset1">
			<data auto_broadcast="numpy" />
			<input>
				<port id="0" precision="FP32">
					<dim>-1</dim>
					<dim>-1</dim>
					<dim>-1</dim>
					<dim>384</dim>
				</port>
				<port id="1" precision="FP32">
					<dim>1</dim>
					<dim>1</dim>
					<dim>1</dim>
					<dim>384</dim>
				</port>
			</input>
			<output>
				<port id="2" precision="FP32" names="281,input.177">
					<dim>-1</dim>
					<dim>-1</dim>
					<dim>-1</dim>
					<dim>384</dim>
				</port>
			</output>
		</layer>
		<layer id="301" name="aten::permute/Transpose_19" type="Transpose" version="opset1">
			<input>
				<port id="0" precision="FP32">
					<dim>-1</dim>
					<dim>-1</dim>
					<dim>-1</dim>
					<dim>384</dim>
				</port>
				<port id="1" precision="I32">
					<dim>4</dim>
				</port>
			</input>
			<output>
				<port id="2" precision="FP32" names="282,input.179">
					<dim>-1</dim>
					<dim>384</dim>
					<dim>-1</dim>
					<dim>-1</dim>
				</port>
			</output>
		</layer>
		<layer id="302" name="aten::mul/Multiply_6" type="Multiply" version="opset1">
			<data auto_broadcast="numpy" />
			<input>
				<port id="0" precision="FP32">
					<dim>1</dim>
					<dim>384</dim>
					<dim>1</dim>
					<dim>1</dim>
				</port>
				<port id="1" precision="FP32">
					<dim>-1</dim>
					<dim>384</dim>
					<dim>-1</dim>
					<dim>-1</dim>
				</port>
			</input>
			<output>
				<port id="2" precision="FP32" names="283_1">
					<dim>-1</dim>
					<dim>384</dim>
					<dim>-1</dim>
					<dim>-1</dim>
				</port>
			</output>
		</layer>
		<layer id="303" name="aten::add_/Add_6" type="Add" version="opset1">
			<data auto_broadcast="numpy" />
			<input>
				<port id="0" precision="FP32">
					<dim>-1</dim>
					<dim>384</dim>
					<dim>-1</dim>
					<dim>-1</dim>
				</port>
				<port id="1" precision="FP32">
					<dim>-1</dim>
					<dim>384</dim>
					<dim>-1</dim>
					<dim>-1</dim>
				</port>
			</input>
			<output>
				<port id="2" precision="FP32" names="283,result.29">
					<dim>-1</dim>
					<dim>384</dim>
					<dim>-1</dim>
					<dim>-1</dim>
				</port>
			</output>
		</layer>
		<layer id="304" name="Reshape_14007_compressed" type="Const" version="opset1">
			<data element_type="f16" shape="384, 1, 1, 7, 7" offset="5476068" size="37632" />
			<output>
				<port id="0" precision="FP16">
					<dim>384</dim>
					<dim>1</dim>
					<dim>1</dim>
					<dim>7</dim>
					<dim>7</dim>
				</port>
			</output>
		</layer>
		<layer id="305" name="Reshape_14007" type="Convert" version="opset1">
			<data destination_type="f32" />
			<rt_info>
				<attribute name="decompression" version="0" />
			</rt_info>
			<input>
				<port id="0" precision="FP16">
					<dim>384</dim>
					<dim>1</dim>
					<dim>1</dim>
					<dim>7</dim>
					<dim>7</dim>
				</port>
			</input>
			<output>
				<port id="1" precision="FP32">
					<dim>384</dim>
					<dim>1</dim>
					<dim>1</dim>
					<dim>7</dim>
					<dim>7</dim>
				</port>
			</output>
		</layer>
		<layer id="306" name="GroupConvolution_14048" type="GroupConvolution" version="opset1">
			<data strides="1, 1" pads_begin="3, 3" pads_end="3, 3" dilations="1, 1" auto_pad="explicit" />
			<input>
				<port id="0" precision="FP32">
					<dim>-1</dim>
					<dim>384</dim>
					<dim>-1</dim>
					<dim>-1</dim>
				</port>
				<port id="1" precision="FP32">
					<dim>384</dim>
					<dim>1</dim>
					<dim>1</dim>
					<dim>7</dim>
					<dim>7</dim>
				</port>
			</input>
			<output>
				<port id="2" precision="FP32">
					<dim>-1</dim>
					<dim>384</dim>
					<dim>-1</dim>
					<dim>-1</dim>
				</port>
			</output>
		</layer>
		<layer id="307" name="aten::conv2d/Reshape_10_compressed" type="Const" version="opset1">
			<data element_type="f16" shape="1, 384, 1, 1" offset="5513700" size="768" />
			<output>
				<port id="0" precision="FP16">
					<dim>1</dim>
					<dim>384</dim>
					<dim>1</dim>
					<dim>1</dim>
				</port>
			</output>
		</layer>
		<layer id="308" name="aten::conv2d/Reshape_10" type="Convert" version="opset1">
			<data destination_type="f32" />
			<rt_info>
				<attribute name="decompression" version="0" />
			</rt_info>
			<input>
				<port id="0" precision="FP16">
					<dim>1</dim>
					<dim>384</dim>
					<dim>1</dim>
					<dim>1</dim>
				</port>
			</input>
			<output>
				<port id="1" precision="FP32">
					<dim>1</dim>
					<dim>384</dim>
					<dim>1</dim>
					<dim>1</dim>
				</port>
			</output>
		</layer>
		<layer id="309" name="aten::conv2d/Add_10" type="Add" version="opset1">
			<data auto_broadcast="numpy" />
			<input>
				<port id="0" precision="FP32">
					<dim>-1</dim>
					<dim>384</dim>
					<dim>-1</dim>
					<dim>-1</dim>
				</port>
				<port id="1" precision="FP32">
					<dim>1</dim>
					<dim>384</dim>
					<dim>1</dim>
					<dim>1</dim>
				</port>
			</input>
			<output>
				<port id="2" precision="FP32" names="285,input.50">
					<dim>-1</dim>
					<dim>384</dim>
					<dim>-1</dim>
					<dim>-1</dim>
				</port>
			</output>
		</layer>
		<layer id="310" name="aten::permute/Transpose_20" type="Transpose" version="opset1">
			<input>
				<port id="0" precision="FP32">
					<dim>-1</dim>
					<dim>384</dim>
					<dim>-1</dim>
					<dim>-1</dim>
				</port>
				<port id="1" precision="I32">
					<dim>4</dim>
				</port>
			</input>
			<output>
				<port id="2" precision="FP32" names="286,input.52">
					<dim>-1</dim>
					<dim>-1</dim>
					<dim>-1</dim>
					<dim>384</dim>
				</port>
			</output>
		</layer>
		<layer id="311" name="aten::layer_norm/Constant_10" type="Const" version="opset1">
			<data element_type="i32" shape="1" offset="22672" size="4" />
			<output>
				<port id="0" precision="I32">
					<dim>1</dim>
				</port>
			</output>
		</layer>
		<layer id="312" name="aten::layer_norm/MVN_10" type="MVN" version="opset6">
			<data eps="9.9999999747524271e-07" normalize_variance="true" eps_mode="INSIDE_SQRT" />
			<input>
				<port id="0" precision="FP32">
					<dim>-1</dim>
					<dim>-1</dim>
					<dim>-1</dim>
					<dim>384</dim>
				</port>
				<port id="1" precision="I32">
					<dim>1</dim>
				</port>
			</input>
			<output>
				<port id="2" precision="FP32">
					<dim>-1</dim>
					<dim>-1</dim>
					<dim>-1</dim>
					<dim>384</dim>
				</port>
			</output>
		</layer>
		<layer id="313" name="Constant_17435_compressed" type="Const" version="opset1">
			<data element_type="f16" shape="1, 1, 1, 384" offset="5514468" size="768" />
			<output>
				<port id="0" precision="FP16">
					<dim>1</dim>
					<dim>1</dim>
					<dim>1</dim>
					<dim>384</dim>
				</port>
			</output>
		</layer>
		<layer id="314" name="Constant_17435" type="Convert" version="opset1">
			<data destination_type="f32" />
			<rt_info>
				<attribute name="decompression" version="0" />
			</rt_info>
			<input>
				<port id="0" precision="FP16">
					<dim>1</dim>
					<dim>1</dim>
					<dim>1</dim>
					<dim>384</dim>
				</port>
			</input>
			<output>
				<port id="1" precision="FP32">
					<dim>1</dim>
					<dim>1</dim>
					<dim>1</dim>
					<dim>384</dim>
				</port>
			</output>
		</layer>
		<layer id="315" name="aten::layer_norm/Multiply_10" type="Multiply" version="opset1">
			<data auto_broadcast="numpy" />
			<input>
				<port id="0" precision="FP32">
					<dim>-1</dim>
					<dim>-1</dim>
					<dim>-1</dim>
					<dim>384</dim>
				</port>
				<port id="1" precision="FP32">
					<dim>1</dim>
					<dim>1</dim>
					<dim>1</dim>
					<dim>384</dim>
				</port>
			</input>
			<output>
				<port id="2" precision="FP32">
					<dim>-1</dim>
					<dim>-1</dim>
					<dim>-1</dim>
					<dim>384</dim>
				</port>
			</output>
		</layer>
		<layer id="316" name="Constant_17436_compressed" type="Const" version="opset1">
			<data element_type="f16" shape="1, 1, 1, 384" offset="5515236" size="768" />
			<output>
				<port id="0" precision="FP16">
					<dim>1</dim>
					<dim>1</dim>
					<dim>1</dim>
					<dim>384</dim>
				</port>
			</output>
		</layer>
		<layer id="317" name="Constant_17436" type="Convert" version="opset1">
			<data destination_type="f32" />
			<rt_info>
				<attribute name="decompression" version="0" />
			</rt_info>
			<input>
				<port id="0" precision="FP16">
					<dim>1</dim>
					<dim>1</dim>
					<dim>1</dim>
					<dim>384</dim>
				</port>
			</input>
			<output>
				<port id="1" precision="FP32">
					<dim>1</dim>
					<dim>1</dim>
					<dim>1</dim>
					<dim>384</dim>
				</port>
			</output>
		</layer>
		<layer id="318" name="aten::layer_norm/Add_10" type="Add" version="opset1">
			<data auto_broadcast="numpy" />
			<input>
				<port id="0" precision="FP32">
					<dim>-1</dim>
					<dim>-1</dim>
					<dim>-1</dim>
					<dim>384</dim>
				</port>
				<port id="1" precision="FP32">
					<dim>1</dim>
					<dim>1</dim>
					<dim>1</dim>
					<dim>384</dim>
				</port>
			</input>
			<output>
				<port id="2" precision="FP32" names="287,input.54">
					<dim>-1</dim>
					<dim>-1</dim>
					<dim>-1</dim>
					<dim>384</dim>
				</port>
			</output>
		</layer>
		<layer id="319" name="self.feature_extractor.features.5.1.block.3.weight_compressed" type="Const" version="opset1">
			<data element_type="f16" shape="1536, 384" offset="5516004" size="1179648" />
			<output>
				<port id="0" precision="FP16" names="126,self.feature_extractor.features.5.1.block.3.weight">
					<dim>1536</dim>
					<dim>384</dim>
				</port>
			</output>
		</layer>
		<layer id="320" name="self.feature_extractor.features.5.1.block.3.weight" type="Convert" version="opset1">
			<data destination_type="f32" />
			<rt_info>
				<attribute name="decompression" version="0" />
			</rt_info>
			<input>
				<port id="0" precision="FP16">
					<dim>1536</dim>
					<dim>384</dim>
				</port>
			</input>
			<output>
				<port id="1" precision="FP32">
					<dim>1536</dim>
					<dim>384</dim>
				</port>
			</output>
		</layer>
		<layer id="321" name="aten::linear/MatMul_14" type="MatMul" version="opset1">
			<data transpose_a="false" transpose_b="true" />
			<input>
				<port id="0" precision="FP32">
					<dim>-1</dim>
					<dim>-1</dim>
					<dim>-1</dim>
					<dim>384</dim>
				</port>
				<port id="1" precision="FP32">
					<dim>1536</dim>
					<dim>384</dim>
				</port>
			</input>
			<output>
				<port id="2" precision="FP32">
					<dim>-1</dim>
					<dim>-1</dim>
					<dim>-1</dim>
					<dim>1536</dim>
				</port>
			</output>
		</layer>
		<layer id="322" name="Constant_17437_compressed" type="Const" version="opset1">
			<data element_type="f16" shape="1, 1, 1, 1536" offset="6695652" size="3072" />
			<output>
				<port id="0" precision="FP16">
					<dim>1</dim>
					<dim>1</dim>
					<dim>1</dim>
					<dim>1536</dim>
				</port>
			</output>
		</layer>
		<layer id="323" name="Constant_17437" type="Convert" version="opset1">
			<data destination_type="f32" />
			<rt_info>
				<attribute name="decompression" version="0" />
			</rt_info>
			<input>
				<port id="0" precision="FP16">
					<dim>1</dim>
					<dim>1</dim>
					<dim>1</dim>
					<dim>1536</dim>
				</port>
			</input>
			<output>
				<port id="1" precision="FP32">
					<dim>1</dim>
					<dim>1</dim>
					<dim>1</dim>
					<dim>1536</dim>
				</port>
			</output>
		</layer>
		<layer id="324" name="aten::linear/Add_14" type="Add" version="opset1">
			<data auto_broadcast="numpy" />
			<input>
				<port id="0" precision="FP32">
					<dim>-1</dim>
					<dim>-1</dim>
					<dim>-1</dim>
					<dim>1536</dim>
				</port>
				<port id="1" precision="FP32">
					<dim>1</dim>
					<dim>1</dim>
					<dim>1</dim>
					<dim>1536</dim>
				</port>
			</input>
			<output>
				<port id="2" precision="FP32" names="288,input.56">
					<dim>-1</dim>
					<dim>-1</dim>
					<dim>-1</dim>
					<dim>1536</dim>
				</port>
			</output>
		</layer>
		<layer id="325" name="aten::gelu/Gelu_7" type="Gelu" version="opset7">
			<data approximation_mode="ERF" />
			<input>
				<port id="0" precision="FP32">
					<dim>-1</dim>
					<dim>-1</dim>
					<dim>-1</dim>
					<dim>1536</dim>
				</port>
			</input>
			<output>
				<port id="1" precision="FP32" names="289,input.58">
					<dim>-1</dim>
					<dim>-1</dim>
					<dim>-1</dim>
					<dim>1536</dim>
				</port>
			</output>
		</layer>
		<layer id="326" name="self.feature_extractor.features.5.1.block.5.weight_compressed" type="Const" version="opset1">
			<data element_type="f16" shape="384, 1536" offset="6698724" size="1179648" />
			<output>
				<port id="0" precision="FP16" names="124,self.feature_extractor.features.5.1.block.5.weight">
					<dim>384</dim>
					<dim>1536</dim>
				</port>
			</output>
		</layer>
		<layer id="327" name="self.feature_extractor.features.5.1.block.5.weight" type="Convert" version="opset1">
			<data destination_type="f32" />
			<rt_info>
				<attribute name="decompression" version="0" />
			</rt_info>
			<input>
				<port id="0" precision="FP16">
					<dim>384</dim>
					<dim>1536</dim>
				</port>
			</input>
			<output>
				<port id="1" precision="FP32">
					<dim>384</dim>
					<dim>1536</dim>
				</port>
			</output>
		</layer>
		<layer id="328" name="aten::linear/MatMul_15" type="MatMul" version="opset1">
			<data transpose_a="false" transpose_b="true" />
			<input>
				<port id="0" precision="FP32">
					<dim>-1</dim>
					<dim>-1</dim>
					<dim>-1</dim>
					<dim>1536</dim>
				</port>
				<port id="1" precision="FP32">
					<dim>384</dim>
					<dim>1536</dim>
				</port>
			</input>
			<output>
				<port id="2" precision="FP32">
					<dim>-1</dim>
					<dim>-1</dim>
					<dim>-1</dim>
					<dim>384</dim>
				</port>
			</output>
		</layer>
		<layer id="329" name="Constant_17438_compressed" type="Const" version="opset1">
			<data element_type="f16" shape="1, 1, 1, 384" offset="7878372" size="768" />
			<output>
				<port id="0" precision="FP16">
					<dim>1</dim>
					<dim>1</dim>
					<dim>1</dim>
					<dim>384</dim>
				</port>
			</output>
		</layer>
		<layer id="330" name="Constant_17438" type="Convert" version="opset1">
			<data destination_type="f32" />
			<rt_info>
				<attribute name="decompression" version="0" />
			</rt_info>
			<input>
				<port id="0" precision="FP16">
					<dim>1</dim>
					<dim>1</dim>
					<dim>1</dim>
					<dim>384</dim>
				</port>
			</input>
			<output>
				<port id="1" precision="FP32">
					<dim>1</dim>
					<dim>1</dim>
					<dim>1</dim>
					<dim>384</dim>
				</port>
			</output>
		</layer>
…
		<edge from-layer="25" from-port="0" to-layer="26" to-port="0" />
		<edge from-layer="26" from-port="1" to-layer="255" to-port="0" />
		<edge from-layer="27" from-port="0" to-layer="28" to-port="0" />
		<edge from-layer="28" from-port="1" to-layer="224" to-port="0" />
		<edge from-layer="29" from-port="0" to-layer="30" to-port="0" />
		<edge from-layer="30" from-port="1" to-layer="193" to-port="0" />
		<edge from-layer="31" from-port="0" to-layer="32" to-port="0" />
		<edge from-layer="32" from-port="1" to-layer="146" to-port="0" />
		<edge from-layer="33" from-port="0" to-layer="34" to-port="0" />
		<edge from-layer="34" from-port="1" to-layer="115" to-port="0" />
		<edge from-layer="35" from-port="0" to-layer="36" to-port="0" />
		<edge from-layer="36" from-port="1" to-layer="84" to-port="0" />
		<edge from-layer="37" from-port="0" to-layer="38" to-port="0" />
		<edge from-layer="38" from-port="1" to-layer="39" to-port="1" />
		<edge from-layer="39" from-port="2" to-layer="42" to-port="0" />
		<edge from-layer="40" from-port="0" to-layer="41" to-port="0" />
		<edge from-layer="41" from-port="1" to-layer="42" to-port="1" />
		<edge from-layer="42" from-port="2" to-layer="44" to-port="0" />
		<edge from-layer="43" from-port="0" to-layer="279" to-port="1" />
		<edge from-layer="43" from-port="0" to-layer="257" to-port="1" />
		<edge from-layer="43" from-port="0" to-layer="310" to-port="1" />
		<edge from-layer="43" from-port="0" to-layer="92" to-port="1" />
		<edge from-layer="43" from-port="0" to-layer="341" to-port="1" />
		<edge from-layer="43" from-port="0" to-layer="232" to-port="1" />
		<edge from-layer="43" from-port="0" to-layer="201" to-port="1" />
		<edge from-layer="43" from-port="0" to-layer="170" to-port="1" />
		<edge from-layer="43" from-port="0" to-layer="148" to-port="1" />
		<edge from-layer="43" from-port="0" to-layer="123" to-port="1" />
		<edge from-layer="43" from-port="0" to-layer="636" to-port="1" />
		<edge from-layer="43" from-port="0" to-layer="605" to-port="1" />
		<edge from-layer="43" from-port="0" to-layer="372" to-port="1" />
		<edge from-layer="43" from-port="0" to-layer="574" to-port="1" />
		<edge from-layer="43" from-port="0" to-layer="403" to-port="1" />
		<edge from-layer="43" from-port="0" to-layer="44" to-port="1" />
		<edge from-layer="43" from-port="0" to-layer="552" to-port="1" />
		<edge from-layer="43" from-port="0" to-layer="434" to-port="1" />
		<edge from-layer="43" from-port="0" to-layer="527" to-port="1" />
		<edge from-layer="43" from-port="0" to-layer="465" to-port="1" />
		<edge from-layer="43" from-port="0" to-layer="61" to-port="1" />
		<edge from-layer="43" from-port="0" to-layer="496" to-port="1" />
		<edge from-layer="44" from-port="2" to-layer="46" to-port="0" />
		<edge from-layer="45" from-port="0" to-layer="46" to-port="1" />
		<edge from-layer="46" from-port="2" to-layer="49" to-port="0" />
		<edge from-layer="47" from-port="0" to-layer="48" to-port="0" />
		<edge from-layer="48" from-port="1" to-layer="49" to-port="1" />
		<edge from-layer="49" from-port="2" to-layer="52" to-port="0" />
		<edge from-layer="50" from-port="0" to-layer="51" to-port="0" />
		<edge from-layer="51" from-port="1" to-layer="52" to-port="1" />
		<edge from-layer="52" from-port="2" to-layer="54" to-port="0" />
		<edge from-layer="53" from-port="0" to-layer="114" to-port="1" />
		<edge from-layer="53" from-port="0" to-layer="157" to-port="1" />
		<edge from-layer="53" from-port="0" to-layer="192" to-port="1" />
		<edge from-layer="53" from-port="0" to-layer="145" to-port="1" />
		<edge from-layer="53" from-port="0" to-layer="223" to-port="1" />
		<edge from-layer="53" from-port="0" to-layer="596" to-port="1" />
		<edge from-layer="53" from-port="0" to-layer="254" to-port="1" />
		<edge from-layer="53" from-port="0" to-layer="425" to-port="1" />
		<edge from-layer="53" from-port="0" to-layer="266" to-port="1" />
		<edge from-layer="53" from-port="0" to-layer="301" to-port="1" />
		<edge from-layer="53" from-port="0" to-layer="456" to-port="1" />
		<edge from-layer="53" from-port="0" to-layer="332" to-port="1" />
		<edge from-layer="53" from-port="0" to-layer="487" to-port="1" />
		<edge from-layer="53" from-port="0" to-layer="394" to-port="1" />
		<edge from-layer="53" from-port="0" to-layer="518" to-port="1" />
		<edge from-layer="53" from-port="0" to-layer="658" to-port="1" />
		<edge from-layer="53" from-port="0" to-layer="549" to-port="1" />
		<edge from-layer="53" from-port="0" to-layer="627" to-port="1" />
		<edge from-layer="53" from-port="0" to-layer="561" to-port="1" />
		<edge from-layer="53" from-port="0" to-layer="363" to-port="1" />
		<edge from-layer="53" from-port="0" to-layer="54" to-port="1" />
		<edge from-layer="53" from-port="0" to-layer="83" to-port="1" />
		<edge from-layer="54" from-port="2" to-layer="85" to-port="1" />
		<edge from-layer="54" from-port="2" to-layer="57" to-port="0" />
		<edge from-layer="55" from-port="0" to-layer="56" to-port="0" />
		<edge from-layer="56" from-port="1" to-layer="57" to-port="1" />
		<edge from-layer="57" from-port="2" to-layer="60" to-port="0" />
		<edge from-layer="58" from-port="0" to-layer="59" to-port="0" />
		<edge from-layer="59" from-port="1" to-layer="60" to-port="1" />
		<edge from-layer="60" from-port="2" to-layer="61" to-port="0" />
		<edge from-layer="61" from-port="2" to-layer="63" to-port="0" />
		<edge from-layer="62" from-port="0" to-layer="63" to-port="1" />
		<edge from-layer="63" from-port="2" to-layer="66" to-port="0" />
		<edge from-layer="64" from-port="0" to-layer="65" to-port="0" />
		<edge from-layer="65" from-port="1" to-layer="66" to-port="1" />
		<edge from-layer="66" from-port="2" to-layer="69" to-port="0" />
		<edge from-layer="67" from-port="0" to-layer="68" to-port="0" />
		<edge from-layer="68" from-port="1" to-layer="69" to-port="1" />
		<edge from-layer="69" from-port="2" to-layer="72" to-port="0" />
		<edge from-layer="70" from-port="0" to-layer="71" to-port="0" />
		<edge from-layer="71" from-port="1" to-layer="72" to-port="1" />
		<edge from-layer="72" from-port="2" to-layer="75" to-port="0" />
		<edge from-layer="73" from-port="0" to-layer="74" to-port="0" />
		<edge from-layer="74" from-port="1" to-layer="75" to-port="1" />
		<edge from-layer="75" from-port="2" to-layer="76" to-port="0" />
		<edge from-layer="76" from-port="1" to-layer="79" to-port="0" />
		<edge from-layer="77" from-port="0" to-layer="78" to-port="0" />
		<edge from-layer="78" from-port="1" to-layer="79" to-port="1" />
		<edge from-layer="79" from-port="2" to-layer="82" to-port="0" />
		<edge from-layer="80" from-port="0" to-layer="81" to-port="0" />
		<edge from-layer="81" from-port="1" to-layer="82" to-port="1" />
		<edge from-layer="82" from-port="2" to-layer="83" to-port="0" />
		<edge from-layer="83" from-port="2" to-layer="84" to-port="1" />
		<edge from-layer="84" from-port="2" to-layer="85" to-port="0" />
		<edge from-layer="85" from-port="2" to-layer="88" to-port="0" />
		<edge from-layer="85" from-port="2" to-layer="116" to-port="1" />
		<edge from-layer="86" from-port="0" to-layer="87" to-port="0" />
		<edge from-layer="87" from-port="1" to-layer="88" to-port="1" />
		<edge from-layer="88" from-port="2" to-layer="91" to-port="0" />
		<edge from-layer="89" from-port="0" to-layer="90" to-port="0" />
		<edge from-layer="90" from-port="1" to-layer="91" to-port="1" />
		<edge from-layer="91" from-port="2" to-layer="92" to-port="0" />
		<edge from-layer="92" from-port="2" to-layer="94" to-port="0" />
		<edge from-layer="93" from-port="0" to-layer="94" to-port="1" />
		<edge from-layer="94" from-port="2" to-layer="97" to-port="0" />
		<edge from-layer="95" from-port="0" to-layer="96" to-port="0" />
		<edge from-layer="96" from-port="1" to-layer="97" to-port="1" />
		<edge from-layer="97" from-port="2" to-layer="100" to-port="0" />
		<edge from-layer="98" from-port="0" to-layer="99" to-port="0" />
		<edge from-layer="99" from-port="1" to-layer="100" to-port="1" />
		<edge from-layer="100" from-port="2" to-layer="103" to-port="0" />
		<edge from-layer="101" from-port="0" to-layer="102" to-port="0" />
		<edge from-layer="102" from-port="1" to-layer="103" to-port="1" />
		<edge from-layer="103" from-port="2" to-layer="106" to-port="0" />
		<edge from-layer="104" from-port="0" to-layer="105" to-port="0" />
		<edge from-layer="105" from-port="1" to-layer="106" to-port="1" />
		<edge from-layer="106" from-port="2" to-layer="107" to-port="0" />
		<edge from-layer="107" from-port="1" to-layer="110" to-port="0" />
		<edge from-layer="108" from-port="0" to-layer="109" to-port="0" />
		<edge from-layer="109" from-port="1" to-layer="110" to-port="1" />
		<edge from-layer="110" from-port="2" to-layer="113" to-port="0" />
		<edge from-layer="111" from-port="0" to-layer="112" to-port="0" />
		<edge from-layer="112" from-port="1" to-layer="113" to-port="1" />
		<edge from-layer="113" from-port="2" to-layer="114" to-port="0" />
		<edge from-layer="114" from-port="2" to-layer="115" to-port="1" />
		<edge from-layer="115" from-port="2" to-layer="116" to-port="0" />
		<edge from-layer="116" from-port="2" to-layer="119" to-port="0" />
		<edge from-layer="116" from-port="2" to-layer="147" to-port="1" />
		<edge from-layer="117" from-port="0" to-layer="118" to-port="0" />
		<edge from-layer="118" from-port="1" to-layer="119" to-port="1" />
		<edge from-layer="119" from-port="2" to-layer="122" to-port="0" />
		<edge from-layer="120" from-port="0" to-layer="121" to-port="0" />
		<edge from-layer="121" from-port="1" to-layer="122" to-port="1" />
		<edge from-layer="122" from-port="2" to-layer="123" to-port="0" />
		<edge from-layer="123" from-port="2" to-layer="125" to-port="0" />
		<edge from-layer="124" from-port="0" to-layer="125" to-port="1" />
		<edge from-layer="125" from-port="2" to-layer="128" to-port="0" />
		<edge from-layer="126" from-port="0" to-layer="127" to-port="0" />
		<edge from-layer="127" from-port="1" to-layer="128" to-port="1" />
		<edge from-layer="128" from-port="2" to-layer="131" to-port="0" />
		<edge from-layer="129" from-port="0" to-layer="130" to-port="0" />
		<edge from-layer="130" from-port="1" to-layer="131" to-port="1" />
		<edge from-layer="131" from-port="2" to-layer="134" to-port="0" />
		<edge from-layer="132" from-port="0" to-layer="133" to-port="0" />
		<edge from-layer="133" from-port="1" to-layer="134" to-port="1" />
		<edge from-layer="134" from-port="2" to-layer="137" to-port="0" />
		<edge from-layer="135" from-port="0" to-layer="136" to-port="0" />
		<edge from-layer="136" from-port="1" to-layer="137" to-port="1" />
		<edge from-layer="137" from-port="2" to-layer="138" to-port="0" />
		<edge from-layer="138" from-port="1" to-layer="141" to-port="0" />
		<edge from-layer="139" from-port="0" to-layer="140" to-port="0" />
		<edge from-layer="140" from-port="1" to-layer="141" to-port="1" />
		<edge from-layer="141" from-port="2" to-layer="144" to-port="0" />
		<edge from-layer="142" from-port="0" to-layer="143" to-port="0" />
		<edge from-layer="143" from-port="1" to-layer="144" to-port="1" />
		<edge from-layer="144" from-port="2" to-layer="145" to-port="0" />
		<edge from-layer="145" from-port="2" to-layer="146" to-port="1" />
		<edge from-layer="146" from-port="2" to-layer="147" to-port="0" />
		<edge from-layer="147" from-port="2" to-layer="148" to-port="0" />
		<edge from-layer="148" from-port="2" to-layer="150" to-port="0" />
		<edge from-layer="149" from-port="0" to-layer="150" to-port="1" />
		<edge from-layer="150" from-port="2" to-layer="153" to-port="0" />
		<edge from-layer="151" from-port="0" to-layer="152" to-port="0" />
		<edge from-layer="152" from-port="1" to-layer="153" to-port="1" />
		<edge from-layer="153" from-port="2" to-layer="156" to-port="0" />
		<edge from-layer="154" from-port="0" to-layer="155" to-port="0" />
		<edge from-layer="155" from-port="1" to-layer="156" to-port="1" />
		<edge from-layer="156" from-port="2" to-layer="157" to-port="0" />
		<edge from-layer="157" from-port="2" to-layer="160" to-port="0" />
		<edge from-layer="158" from-port="0" to-layer="159" to-port="0" />
		<edge from-layer="159" from-port="1" to-layer="160" to-port="1" />
		<edge from-layer="160" from-port="2" to-layer="163" to-port="0" />
		<edge from-layer="161" from-port="0" to-layer="162" to-port="0" />
		<edge from-layer="162" from-port="1" to-layer="163" to-port="1" />
		<edge from-layer="163" from-port="2" to-layer="194" to-port="1" />
		<edge from-layer="163" from-port="2" to-layer="166" to-port="0" />
		<edge from-layer="164" from-port="0" to-layer="165" to-port="0" />
		<edge from-layer="165" from-port="1" to-layer="166" to-port="1" />
		<edge from-layer="166" from-port="2" to-layer="169" to-port="0" />
		<edge from-layer="167" from-port="0" to-layer="168" to-port="0" />
		<edge from-layer="168" from-port="1" to-layer="169" to-port="1" />
		<edge from-layer="169" from-port="2" to-layer="170" to-port="0" />
		<edge from-layer="170" from-port="2" to-layer="172" to-port="0" />
		<edge from-layer="171" from-port="0" to-layer="172" to-port="1" />
		<edge from-layer="172" from-port="2" to-layer="175" to-port="0" />
		<edge from-layer="173" from-port="0" to-layer="174" to-port="0" />
		<edge from-layer="174" from-port="1" to-layer="175" to-port="1" />
		<edge from-layer="175" from-port="2" to-layer="178" to-port="0" />
		<edge from-layer="176" from-port="0" to-layer="177" to-port="0" />
		<edge from-layer="177" from-port="1" to-layer="178" to-port="1" />
		<edge from-layer="178" from-port="2" to-layer="181" to-port="0" />
		<edge from-layer="179" from-port="0" to-layer="180" to-port="0" />
		<edge from-layer="180" from-port="1" to-layer="181" to-port="1" />
		<edge from-layer="181" from-port="2" to-layer="184" to-port="0" />
		<edge from-layer="182" from-port="0" to-layer="183" to-port="0" />
		<edge from-layer="183" from-port="1" to-layer="184" to-port="1" />
		<edge from-layer="184" from-port="2" to-layer="185" to-port="0" />
		<edge from-layer="185" from-port="1" to-layer="188" to-port="0" />
		<edge from-layer="186" from-port="0" to-layer="187" to-port="0" />
		<edge from-layer="187" from-port="1" to-layer="188" to-port="1" />
		<edge from-layer="188" from-port="2" to-layer="191" to-port="0" />
		<edge from-layer="189" from-port="0" to-layer="190" to-port="0" />
		<edge from-layer="190" from-port="1" to-layer="191" to-port="1" />
		<edge from-layer="191" from-port="2" to-layer="192" to-port="0" />
		<edge from-layer="192" from-port="2" to-layer="193" to-port="1" />
		<edge from-layer="193" from-port="2" to-layer="194" to-port="0" />
		<edge from-layer="194" from-port="2" to-layer="225" to-port="1" />
		<edge from-layer="194" from-port="2" to-layer="197" to-port="0" />
		<edge from-layer="195" from-port="0" to-layer="196" to-port="0" />
		<edge from-layer="196" from-port="1" to-layer="197" to-port="1" />
		<edge from-layer="197" from-port="2" to-layer="200" to-port="0" />
		<edge from-layer="198" from-port="0" to-layer="199" to-port="0" />
		<edge from-layer="199" from-port="1" to-layer="200" to-port="1" />
		<edge from-layer="200" from-port="2" to-layer="201" to-port="0" />
		<edge from-layer="201" from-port="2" to-layer="203" to-port="0" />
		<edge from-layer="202" from-port="0" to-layer="203" to-port="1" />
		<edge from-layer="203" from-port="2" to-layer="206" to-port="0" />
		<edge from-layer="204" from-port="0" to-layer="205" to-port="0" />
		<edge from-layer="205" from-port="1" to-layer="206" to-port="1" />
		<edge from-layer="206" from-port="2" to-layer="209" to-port="0" />
		<edge from-layer="207" from-port="0" to-layer="208" to-port="0" />
		<edge from-layer="208" from-port="1" to-layer="209" to-port="1" />
		<edge from-layer="209" from-port="2" to-layer="212" to-port="0" />
		<edge from-layer="210" from-port="0" to-layer="211" to-port="0" />
		<edge from-layer="211" from-port="1" to-layer="212" to-port="1" />
		<edge from-layer="212" from-port="2" to-layer="215" to-port="0" />
		<edge from-layer="213" from-port="0" to-layer="214" to-port="0" />
		<edge from-layer="214" from-port="1" to-layer="215" to-port="1" />
		<edge from-layer="215" from-port="2" to-layer="216" to-port="0" />
		<edge from-layer="216" from-port="1" to-layer="219" to-port="0" />
		<edge from-layer="217" from-port="0" to-layer="218" to-port="0" />
		<edge from-layer="218" from-port="1" to-layer="219" to-port="1" />
		<edge from-layer="219" from-port="2" to-layer="222" to-port="0" />
		<edge from-layer="220" from-port="0" to-layer="221" to-port="0" />
		<edge from-layer="221" from-port="1" to-layer="222" to-port="1" />
		<edge from-layer="222" from-port="2" to-layer="223" to-port="0" />
		<edge from-layer="223" from-port="2" to-layer="224" to-port="1" />
		<edge from-layer="224" from-port="2" to-layer="225" to-port="0" />
		<edge from-layer="225" from-port="2" to-layer="256" to-port="1" />
		<edge from-layer="225" from-port="2" to-layer="228" to-port="0" />
		<edge from-layer="226" from-port="0" to-layer="227" to-port="0" />
		<edge from-layer="227" from-port="1" to-layer="228" to-port="1" />
		<edge from-layer="228" from-port="2" to-layer="231" to-port="0" />
		<edge from-layer="229" from-port="0" to-layer="230" to-port="0" />
		<edge from-layer="230" from-port="1" to-layer="231" to-port="1" />
		<edge from-layer="231" from-port="2" to-layer="232" to-port="0" />
		<edge from-layer="232" from-port="2" to-layer="234" to-port="0" />
		<edge from-layer="233" from-port="0" to-layer="234" to-port="1" />
		<edge from-layer="234" from-port="2" to-layer="237" to-port="0" />
		<edge from-layer="235" from-port="0" to-layer="236" to-port="0" />
		<edge from-layer="236" from-port="1" to-layer="237" to-port="1" />
		<edge from-layer="237" from-port="2" to-layer="240" to-port="0" />
		<edge from-layer="238" from-port="0" to-layer="239" to-port="0" />
		<edge from-layer="239" from-port="1" to-layer="240" to-port="1" />
		<edge from-layer="240" from-port="2" to-layer="243" to-port="0" />
		<edge from-layer="241" from-port="0" to-layer="242" to-port="0" />
		<edge from-layer="242" from-port="1" to-layer="243" to-port="1" />
		<edge from-layer="243" from-port="2" to-layer="246" to-port="0" />
		<edge from-layer="244" from-port="0" to-layer="245" to-port="0" />
		<edge from-layer="245" from-port="1" to-layer="246" to-port="1" />
		<edge from-layer="246" from-port="2" to-layer="247" to-port="0" />
		<edge from-layer="247" from-port="1" to-layer="250" to-port="0" />
		<edge from-layer="248" from-port="0" to-layer="249" to-port="0" />
		<edge from-layer="249" from-port="1" to-layer="250" to-port="1" />
		<edge from-layer="250" from-port="2" to-layer="253" to-port="0" />
		<edge from-layer="251" from-port="0" to-layer="252" to-port="0" />
		<edge from-layer="252" from-port="1" to-layer="253" to-port="1" />
		<edge from-layer="253" from-port="2" to-layer="254" to-port="0" />
		<edge from-layer="254" from-port="2" to-layer="255" to-port="1" />
		<edge from-layer="255" from-port="2" to-layer="256" to-port="0" />
		<edge from-layer="256" from-port="2" to-layer="257" to-port="0" />
		<edge from-layer="257" from-port="2" to-layer="259" to-port="0" />
		<edge from-layer="258" from-port="0" to-layer="259" to-port="1" />
		<edge from-layer="259" from-port="2" to-layer="262" to-port="0" />
		<edge from-layer="260" from-port="0" to-layer="261" to-port="0" />
		<edge from-layer="261" from-port="1" to-layer="262" to-port="1" />
		<edge from-layer="262" from-port="2" to-layer="265" to-port="0" />
		<edge from-layer="263" from-port="0" to-layer="264" to-port="0" />
		<edge from-layer="264" from-port="1" to-layer="265" to-port="1" />
		<edge from-layer="265" from-port="2" to-layer="266" to-port="0" />
		<edge from-layer="266" from-port="2" to-layer="269" to-port="0" />
		<edge from-layer="267" from-port="0" to-layer="268" to-port="0" />
		<edge from-layer="268" from-port="1" to-layer="269" to-port="1" />
		<edge from-layer="269" from-port="2" to-layer="272" to-port="0" />
		<edge from-layer="270" from-port="0" to-layer="271" to-port="0" />
		<edge from-layer="271" from-port="1" to-layer="272" to-port="1" />
		<edge from-layer="272" from-port="2" to-layer="303" to-port="1" />
		<edge from-layer="272" from-port="2" to-layer="275" to-port="0" />
		<edge from-layer="273" from-port="0" to-layer="274" to-port="0" />
		<edge from-layer="274" from-port="1" to-layer="275" to-port="1" />
		<edge from-layer="275" from-port="2" to-layer="278" to-port="0" />
		<edge from-layer="276" from-port="0" to-layer="277" to-port="0" />
		<edge from-layer="277" from-port="1" to-layer="278" to-port="1" />
		<edge from-layer="278" from-port="2" to-layer="279" to-port="0" />
		<edge from-layer="279" from-port="2" to-layer="281" to-port="0" />
		<edge from-layer="280" from-port="0" to-layer="281" to-port="1" />
		<edge from-layer="281" from-port="2" to-layer="284" to-port="0" />
		<edge from-layer="282" from-port="0" to-layer="283" to-port="0" />
		<edge from-layer="283" from-port="1" to-layer="284" to-port="1" />
		<edge from-layer="284" from-port="2" to-layer="287" to-port="0" />
		<edge from-layer="285" from-port="0" to-layer="286" to-port="0" />
		<edge from-layer="286" from-port="1" to-layer="287" to-port="1" />
		<edge from-layer="287" from-port="2" to-layer="290" to-port="0" />
		<edge from-layer="288" from-port="0" to-layer="289" to-port="0" />
		<edge from-layer="289" from-port="1" to-layer="290" to-port="1" />
		<edge from-layer="290" from-port="2" to-layer="293" to-port="0" />
		<edge from-layer="291" from-port="0" to-layer="292" to-port="0" />
		<edge from-layer="292" from-port="1" to-layer="293" to-port="1" />
		<edge from-layer="293" from-port="2" to-layer="294" to-port="0" />
		<edge from-layer="294" from-port="1" to-layer="297" to-port="0" />
		<edge from-layer="295" from-port="0" to-layer="296" to-port="0" />
		<edge from-layer="296" from-port="1" to-layer="297" to-port="1" />
		<edge from-layer="297" from-port="2" to-layer="300" to-port="0" />
		<edge from-layer="298" from-port="0" to-layer="299" to-port="0" />
		<edge from-layer="299" from-port="1" to-layer="300" to-port="1" />
		<edge from-layer="300" from-port="2" to-layer="301" to-port="0" />
		<edge from-layer="301" from-port="2" to-layer="302" to-port="1" />
		<edge from-layer="302" from-port="2" to-layer="303" to-port="0" />
		<edge from-layer="303" from-port="2" to-layer="334" to-port="1" />
		<edge from-layer="303" from-port="2" to-layer="306" to-port="0" />
		<edge from-layer="304" from-port="0" to-layer="305" to-port="0" />
		<edge from-layer="305" from-port="1" to-layer="306" to-port="1" />
		<edge from-layer="306" from-port="2" to-layer="309" to-port="0" />
		<edge from-layer="307" from-port="0" to-layer="308" to-port="0" />
		<edge from-layer="308" from-port="1" to-layer="309" to-port="1" />
		<edge from-layer="309" from-port="2" to-layer="310" to-port="0" />
		<edge from-layer="310" from-port="2" to-layer="312" to-port="0" />
		<edge from-layer="311" from-port="0" to-layer="312" to-port="1" />
		<edge from-layer="312" from-port="2" to-layer="315" to-port="0" />
		<edge from-layer="313" from-port="0" to-layer="314" to-port="0" />
		<edge from-layer="314" from-port="1" to-layer="315" to-port="1" />
		<edge from-layer="315" from-port="2" to-layer="318" to-port="0" />
		<edge from-layer="316" from-port="0" to-layer="317" to-port="0" />
		<edge from-layer="317" from-port="1" to-layer="318" to-port="1" />
		<edge from-layer="318" from-port="2" to-layer="321" to-port="0" />
		<edge from-layer="319" from-port="0" to-layer="320" to-port="0" />
		<edge from-layer="320" from-port="1" to-layer="321" to-port="1" />
		<edge from-layer="321" from-port="2" to-layer="324" to-port="0" />
		<edge from-layer="322" from-port="0" to-layer="323" to-port="0" />
		<edge from-layer="323" from-port="1" to-layer="324" to-port="1" />
		<edge from-layer="324" from-port="2" to-layer="325" to-port="0" />
		<edge from-layer="325" from-port="1" to-layer="328" to-port="0" />
		<edge from-layer="326" from-port="0" to-layer="327" to-port="0" />
		<edge from-layer="327" from-port="1" to-layer="328" to-port="1" />
		<edge from-layer="328" from-port="2" to-layer="331" to-port="0" />
		<edge from-layer="329" from-port="0" to-layer="330" to-port="0" />
		<edge from-layer="330" from-port="1" to-layer="331" to-port="1" />
		<edge from-layer="331" from-port="2" to-layer="332" to-port="0" />
		<edge from-layer="332" from-port="2" to-layer="333" to-port="1" />
		<edge from-layer="333" from-port="2" to-layer="334" to-port="0" />
		<edge from-layer="334" from-port="2" to-layer="365" to-port="1" />
		<edge from-layer="334" from-port="2" to-layer="337" to-port="0" />
		<edge from-layer="335" from-port="0" to-layer="336" to-port="0" />
		<edge from-layer="336" from-port="1" to-layer="337" to-port="1" />
		<edge from-layer="337" from-port="2" to-layer="340" to-port="0" />
		<edge from-layer="338" from-port="0" to-layer="339" to-port="0" />
		<edge from-layer="339" from-port="1" to-layer="340" to-port="1" />
		<edge from-layer="340" from-port="2" to-layer="341" to-port="0" />
		<edge from-layer="341" from-port="2" to-layer="343" to-port="0" />
		<edge from-layer="342" from-port="0" to-layer="343" to-port="1" />
		<edge from-layer="343" from-port="2" to-layer="346" to-port="0" />
		<edge from-layer="344" from-port="0" to-layer="345" to-port="0" />
		<edge from-layer="345" from-port="1" to-layer="346" to-port="1" />
		<edge from-layer="346" from-port="2" to-layer="349" to-port="0" />
		<edge from-layer="347" from-port="0" to-layer="348" to-port="0" />
		<edge from-layer="348" from-port="1" to-layer="349" to-port="1" />
		<edge from-layer="349" from-port="2" to-layer="352" to-port="0" />
		<edge from-layer="350" from-port="0" to-layer="351" to-port="0" />
		<edge from-layer="351" from-port="1" to-layer="352" to-port="1" />
		<edge from-layer="352" from-port="2" to-layer="355" to-port="0" />
		<edge from-layer="353" from-port="0" to-layer="354" to-port="0" />
		<edge from-layer="354" from-port="1" to-layer="355" to-port="1" />
		<edge from-layer="355" from-port="2" to-layer="356" to-port="0" />
		<edge from-layer="356" from-port="1" to-layer="359" to-port="0" />
		<edge from-layer="357" from-port="0" to-layer="358" to-port="0" />
		<edge from-layer="358" from-port="1" to-layer="359" to-port="1" />
		<edge from-layer="359" from-port="2" to-layer="362" to-port="0" />
		<edge from-layer="360" from-port="0" to-layer="361" to-port="0" />
		<edge from-layer="361" from-port="1" to-layer="362" to-port="1" />
		<edge from-layer="362" from-port="2" to-layer="363" to-port="0" />
		<edge from-layer="363" from-port="2" to-layer="364" to-port="1" />
		<edge from-layer="364" from-port="2" to-layer="365" to-port="0" />
		<edge from-layer="365" from-port="2" to-layer="368" to-port="0" />
		<edge from-layer="365" from-port="2" to-layer="396" to-port="1" />
		<edge from-layer="366" from-port="0" to-layer="367" to-port="0" />
		<edge from-layer="367" from-port="1" to-layer="368" to-port="1" />
		<edge from-layer="368" from-port="2" to-layer="371" to-port="0" />
		<edge from-layer="369" from-port="0" to-layer="370" to-port="0" />
		<edge from-layer="370" from-port="1" to-layer="371" to-port="1" />
		<edge from-layer="371" from-port="2" to-layer="372" to-port="0" />
		<edge from-layer="372" from-port="2" to-layer="374" to-port="0" />
		<edge from-layer="373" from-port="0" to-layer="374" to-port="1" />
		<edge from-layer="374" from-port="2" to-layer="377" to-port="0" />
		<edge from-layer="375" from-port="0" to-layer="376" to-port="0" />
		<edge from-layer="376" from-port="1" to-layer="377" to-port="1" />
		<edge from-layer="377" from-port="2" to-layer="380" to-port="0" />
		<edge from-layer="378" from-port="0" to-layer="379" to-port="0" />
		<edge from-layer="379" from-port="1" to-layer="380" to-port="1" />
		<edge from-layer="380" from-port="2" to-layer="383" to-port="0" />
		<edge from-layer="381" from-port="0" to-layer="382" to-port="0" />
		<edge from-layer="382" from-port="1" to-layer="383" to-port="1" />
		<edge from-layer="383" from-port="2" to-layer="386" to-port="0" />
		<edge from-layer="384" from-port="0" to-layer="385" to-port="0" />
		<edge from-layer="385" from-port="1" to-layer="386" to-port="1" />
		<edge from-layer="386" from-port="2" to-layer="387" to-port="0" />
		<edge from-layer="387" from-port="1" to-layer="390" to-port="0" />
		<edge from-layer="388" from-port="0" to-layer="389" to-port="0" />
		<edge from-layer="389" from-port="1" to-layer="390" to-port="1" />
		<edge from-layer="390" from-port="2" to-layer="393" to-port="0" />
		<edge from-layer="391" from-port="0" to-layer="392" to-port="0" />
		<edge from-layer="392" from-port="1" to-layer="393" to-port="1" />
		<edge from-layer="393" from-port="2" to-layer="394" to-port="0" />
		<edge from-layer="394" from-port="2" to-layer="395" to-port="1" />
		<edge from-layer="395" from-port="2" to-layer="396" to-port="0" />
		<edge from-layer="396" from-port="2" to-layer="399" to-port="0" />
		<edge from-layer="396" from-port="2" to-layer="427" to-port="1" />
		<edge from-layer="397" from-port="0" to-layer="398" to-port="0" />
		<edge from-layer="398" from-port="1" to-layer="399" to-port="1" />
		<edge from-layer="399" from-port="2" to-layer="402" to-port="0" />
		<edge from-layer="400" from-port="0" to-layer="401" to-port="0" />
		<edge from-layer="401" from-port="1" to-layer="402" to-port="1" />
		<edge from-layer="402" from-port="2" to-layer="403" to-port="0" />
		<edge from-layer="403" from-port="2" to-layer="405" to-port="0" />
		<edge from-layer="404" from-port="0" to-layer="405" to-port="1" />
		<edge from-layer="405" from-port="2" to-layer="408" to-port="0" />
		<edge from-layer="406" from-port="0" to-layer="407" to-port="0" />
		<edge from-layer="407" from-port="1" to-layer="408" to-port="1" />
		<edge from-layer="408" from-port="2" to-layer="411" to-port="0" />
		<edge from-layer="409" from-port="0" to-layer="410" to-port="0" />
		<edge from-layer="410" from-port="1" to-layer="411" to-port="1" />
		<edge from-layer="411" from-port="2" to-layer="414" to-port="0" />
		<edge from-layer="412" from-port="0" to-layer="413" to-port="0" />
		<edge from-layer="413" from-port="1" to-layer="414" to-port="1" />
		<edge from-layer="414" from-port="2" to-layer="417" to-port="0" />
		<edge from-layer="415" from-port="0" to-layer="416" to-port="0" />
		<edge from-layer="416" from-port="1" to-layer="417" to-port="1" />
		<edge from-layer="417" from-port="2" to-layer="418" to-port="0" />
		<edge from-layer="418" from-port="1" to-layer="421" to-port="0" />
		<edge from-layer="419" from-port="0" to-layer="420" to-port="0" />
		<edge from-layer="420" from-port="1" to-layer="421" to-port="1" />
		<edge from-layer="421" from-port="2" to-layer="424" to-port="0" />
		<edge from-layer="422" from-port="0" to-layer="423" to-port="0" />
		<edge from-layer="423" from-port="1" to-layer="424" to-port="1" />
		<edge from-layer="424" from-port="2" to-layer="425" to-port="0" />
		<edge from-layer="425" from-port="2" to-layer="426" to-port="1" />
		<edge from-layer="426" from-port="2" to-layer="427" to-port="0" />
		<edge from-layer="427" from-port="2" to-layer="458" to-port="1" />
		<edge from-layer="427" from-port="2" to-layer="430" to-port="0" />
		<edge from-layer="428" from-port="0" to-layer="429" to-port="0" />
		<edge from-layer="429" from-port="1" to-layer="430" to-port="1" />
		<edge from-layer="430" from-port="2" to-layer="433" to-port="0" />
		<edge from-layer="431" from-port="0" to-layer="432" to-port="0" />
		<edge from-layer="432" from-port="1" to-layer="433" to-port="1" />
		<edge from-layer="433" from-port="2" to-layer="434" to-port="0" />
		<edge from-layer="434" from-port="2" to-layer="436" to-port="0" />
		<edge from-layer="435" from-port="0" to-layer="436" to-port="1" />
		<edge from-layer="436" from-port="2" to-layer="439" to-port="0" />
		<edge from-layer="437" from-port="0" to-layer="438" to-port="0" />
		<edge from-layer="438" from-port="1" to-layer="439" to-port="1" />
		<edge from-layer="439" from-port="2" to-layer="442" to-port="0" />
		<edge from-layer="440" from-port="0" to-layer="441" to-port="0" />
		<edge from-layer="441" from-port="1" to-layer="442" to-port="1" />
		<edge from-layer="442" from-port="2" to-layer="445" to-port="0" />
		<edge from-layer="443" from-port="0" to-layer="444" to-port="0" />
		<edge from-layer="444" from-port="1" to-layer="445" to-port="1" />
		<edge from-layer="445" from-port="2" to-layer="448" to-port="0" />
		<edge from-layer="446" from-port="0" to-layer="447" to-port="0" />
		<edge from-layer="447" from-port="1" to-layer="448" to-port="1" />
		<edge from-layer="448" from-port="2" to-layer="449" to-port="0" />
		<edge from-layer="449" from-port="1" to-layer="452" to-port="0" />
		<edge from-layer="450" from-port="0" to-layer="451" to-port="0" />
		<edge from-layer="451" from-port="1" to-layer="452" to-port="1" />
		<edge from-layer="452" from-port="2" to-layer="455" to-port="0" />
		<edge from-layer="453" from-port="0" to-layer="454" to-port="0" />
		<edge from-layer="454" from-port="1" to-layer="455" to-port="1" />
		<edge from-layer="455" from-port="2" to-layer="456" to-port="0" />
		<edge from-layer="456" from-port="2" to-layer="457" to-port="1" />
		<edge from-layer="457" from-port="2" to-layer="458" to-port="0" />
		<edge from-layer="458" from-port="2" to-layer="461" to-port="0" />
		<edge from-layer="458" from-port="2" to-layer="489" to-port="1" />
		<edge from-layer="459" from-port="0" to-layer="460" to-port="0" />
		<edge from-layer="460" from-port="1" to-layer="461" to-port="1" />
		<edge from-layer="461" from-port="2" to-layer="464" to-port="0" />
		<edge from-layer="462" from-port="0" to-layer="463" to-port="0" />
		<edge from-layer="463" from-port="1" to-layer="464" to-port="1" />
		<edge from-layer="464" from-port="2" to-layer="465" to-port="0" />
		<edge from-layer="465" from-port="2" to-layer="467" to-port="0" />
		<edge from-layer="466" from-port="0" to-layer="467" to-port="1" />
		<edge from-layer="467" from-port="2" to-layer="470" to-port="0" />
		<edge from-layer="468" from-port="0" to-layer="469" to-port="0" />
		<edge from-layer="469" from-port="1" to-layer="470" to-port="1" />
		<edge from-layer="470" from-port="2" to-layer="473" to-port="0" />
		<edge from-layer="471" from-port="0" to-layer="472" to-port="0" />
		<edge from-layer="472" from-port="1" to-layer="473" to-port="1" />
		<edge from-layer="473" from-port="2" to-layer="476" to-port="0" />
		<edge from-layer="474" from-port="0" to-layer="475" to-port="0" />
		<edge from-layer="475" from-port="1" to-layer="476" to-port="1" />
		<edge from-layer="476" from-port="2" to-layer="479" to-port="0" />
		<edge from-layer="477" from-port="0" to-layer="478" to-port="0" />
		<edge from-layer="478" from-port="1" to-layer="479" to-port="1" />
		<edge from-layer="479" from-port="2" to-layer="480" to-port="0" />
		<edge from-layer="480" from-port="1" to-layer="483" to-port="0" />
		<edge from-layer="481" from-port="0" to-layer="482" to-port="0" />
		<edge from-layer="482" from-port="1" to-layer="483" to-port="1" />
		<edge from-layer="483" from-port="2" to-layer="486" to-port="0" />
		<edge from-layer="484" from-port="0" to-layer="485" to-port="0" />
		<edge from-layer="485" from-port="1" to-layer="486" to-port="1" />
		<edge from-layer="486" from-port="2" to-layer="487" to-port="0" />
		<edge from-layer="487" from-port="2" to-layer="488" to-port="1" />
		<edge from-layer="488" from-port="2" to-layer="489" to-port="0" />
		<edge from-layer="489" from-port="2" to-layer="520" to-port="1" />
		<edge from-layer="489" from-port="2" to-layer="492" to-port="0" />
		<edge from-layer="490" from-port="0" to-layer="491" to-port="0" />
		<edge from-layer="491" from-port="1" to-layer="492" to-port="1" />
		<edge from-layer="492" from-port="2" to-layer="495" to-port="0" />
		<edge from-layer="493" from-port="0" to-layer="494" to-port="0" />
		<edge from-layer="494" from-port="1" to-layer="495" to-port="1" />
		<edge from-layer="495" from-port="2" to-layer="496" to-port="0" />
		<edge from-layer="496" from-port="2" to-layer="498" to-port="0" />
		<edge from-layer="497" from-port="0" to-layer="498" to-port="1" />
		<edge from-layer="498" from-port="2" to-layer="501" to-port="0" />
		<edge from-layer="499" from-port="0" to-layer="500" to-port="0" />
		<edge from-layer="500" from-port="1" to-layer="501" to-port="1" />
		<edge from-layer="501" from-port="2" to-layer="504" to-port="0" />
		<edge from-layer="502" from-port="0" to-layer="503" to-port="0" />
		<edge from-layer="503" from-port="1" to-layer="504" to-port="1" />
		<edge from-layer="504" from-port="2" to-layer="507" to-port="0" />
		<edge from-layer="505" from-port="0" to-layer="506" to-port="0" />
		<edge from-layer="506" from-port="1" to-layer="507" to-port="1" />
		<edge from-layer="507" from-port="2" to-layer="510" to-port="0" />
		<edge from-layer="508" from-port="0" to-layer="509" to-port="0" />
		<edge from-layer="509" from-port="1" to-layer="510" to-port="1" />
		<edge from-layer="510" from-port="2" to-layer="511" to-port="0" />
		<edge from-layer="511" from-port="1" to-layer="514" to-port="0" />
		<edge from-layer="512" from-port="0" to-layer="513" to-port="0" />
		<edge from-layer="513" from-port="1" to-layer="514" to-port="1" />
		<edge from-layer="514" from-port="2" to-layer="517" to-port="0" />
		<edge from-layer="515" from-port="0" to-layer="516" to-port="0" />
		<edge from-layer="516" from-port="1" to-layer="517" to-port="1" />
		<edge from-layer="517" from-port="2" to-layer="518" to-port="0" />
		<edge from-layer="518" from-port="2" to-layer="519" to-port="1" />
		<edge from-layer="519" from-port="2" to-layer="520" to-port="0" />
		<edge from-layer="520" from-port="2" to-layer="551" to-port="1" />
		<edge from-layer="520" from-port="2" to-layer="523" to-port="0" />
		<edge from-layer="521" from-port="0" to-layer="522" to-port="0" />
		<edge from-layer="522" from-port="1" to-layer="523" to-port="1" />
		<edge from-layer="523" from-port="2" to-layer="526" to-port="0" />
		<edge from-layer="524" from-port="0" to-layer="525" to-port="0" />
		<edge from-layer="525" from-port="1" to-layer="526" to-port="1" />
		<edge from-layer="526" from-port="2" to-layer="527" to-port="0" />
		<edge from-layer="527" from-port="2" to-layer="529" to-port="0" />
		<edge from-layer="528" from-port="0" to-layer="529" to-port="1" />
		<edge from-layer="529" from-port="2" to-layer="532" to-port="0" />
		<edge from-layer="530" from-port="0" to-layer="531" to-port="0" />
		<edge from-layer="531" from-port="1" to-layer="532" to-port="1" />
		<edge from-layer="532" from-port="2" to-layer="535" to-port="0" />
		<edge from-layer="533" from-port="0" to-layer="534" to-port="0" />
		<edge from-layer="534" from-port="1" to-layer="535" to-port="1" />
		<edge from-layer="535" from-port="2" to-layer="538" to-port="0" />
		<edge from-layer="536" from-port="0" to-layer="537" to-port="0" />
		<edge from-layer="537" from-port="1" to-layer="538" to-port="1" />
		<edge from-layer="538" from-port="2" to-layer="541" to-port="0" />
		<edge from-layer="539" from-port="0" to-layer="540" to-port="0" />
		<edge from-layer="540" from-port="1" to-layer="541" to-port="1" />
		<edge from-layer="541" from-port="2" to-layer="542" to-port="0" />
		<edge from-layer="542" from-port="1" to-layer="545" to-port="0" />
		<edge from-layer="543" from-port="0" to-layer="544" to-port="0" />
		<edge from-layer="544" from-port="1" to-layer="545" to-port="1" />
		<edge from-layer="545" from-port="2" to-layer="548" to-port="0" />
		<edge from-layer="546" from-port="0" to-layer="547" to-port="0" />
		<edge from-layer="547" from-port="1" to-layer="548" to-port="1" />
		<edge from-layer="548" from-port="2" to-layer="549" to-port="0" />
		<edge from-layer="549" from-port="2" to-layer="550" to-port="1" />
		<edge from-layer="550" from-port="2" to-layer="551" to-port="0" />
		<edge from-layer="551" from-port="2" to-layer="552" to-port="0" />
		<edge from-layer="552" from-port="2" to-layer="554" to-port="0" />
		<edge from-layer="553" from-port="0" to-layer="554" to-port="1" />
		<edge from-layer="554" from-port="2" to-layer="557" to-port="0" />
		<edge from-layer="555" from-port="0" to-layer="556" to-port="0" />
		<edge from-layer="556" from-port="1" to-layer="557" to-port="1" />
		<edge from-layer="557" from-port="2" to-layer="560" to-port="0" />
		<edge from-layer="558" from-port="0" to-layer="559" to-port="0" />
		<edge from-layer="559" from-port="1" to-layer="560" to-port="1" />
		<edge from-layer="560" from-port="2" to-layer="561" to-port="0" />
		<edge from-layer="561" from-port="2" to-layer="564" to-port="0" />
		<edge from-layer="562" from-port="0" to-layer="563" to-port="0" />
		<edge from-layer="563" from-port="1" to-layer="564" to-port="1" />
		<edge from-layer="564" from-port="2" to-layer="567" to-port="0" />
		<edge from-layer="565" from-port="0" to-layer="566" to-port="0" />
		<edge from-layer="566" from-port="1" to-layer="567" to-port="1" />
		<edge from-layer="567" from-port="2" to-layer="570" to-port="0" />
		<edge from-layer="567" from-port="2" to-layer="598" to-port="1" />
		<edge from-layer="568" from-port="0" to-layer="569" to-port="0" />
		<edge from-layer="569" from-port="1" to-layer="570" to-port="1" />
		<edge from-layer="570" from-port="2" to-layer="573" to-port="0" />
		<edge from-layer="571" from-port="0" to-layer="572" to-port="0" />
		<edge from-layer="572" from-port="1" to-layer="573" to-port="1" />
		<edge from-layer="573" from-port="2" to-layer="574" to-port="0" />
		<edge from-layer="574" from-port="2" to-layer="576" to-port="0" />
		<edge from-layer="575" from-port="0" to-layer="576" to-port="1" />
		<edge from-layer="576" from-port="2" to-layer="579" to-port="0" />
		<edge from-layer="577" from-port="0" to-layer="578" to-port="0" />
		<edge from-layer="578" from-port="1" to-layer="579" to-port="1" />
		<edge from-layer="579" from-port="2" to-layer="582" to-port="0" />
		<edge from-layer="580" from-port="0" to-layer="581" to-port="0" />
		<edge from-layer="581" from-port="1" to-layer="582" to-port="1" />
		<edge from-layer="582" from-port="2" to-layer="585" to-port="0" />
		<edge from-layer="583" from-port="0" to-layer="584" to-port="0" />
		<edge from-layer="584" from-port="1" to-layer="585" to-port="1" />
		<edge from-layer="585" from-port="2" to-layer="588" to-port="0" />
		<edge from-layer="586" from-port="0" to-layer="587" to-port="0" />
		<edge from-layer="587" from-port="1" to-layer="588" to-port="1" />
		<edge from-layer="588" from-port="2" to-layer="589" to-port="0" />
		<edge from-layer="589" from-port="1" to-layer="592" to-port="0" />
		<edge from-layer="590" from-port="0" to-layer="591" to-port="0" />
		<edge from-layer="591" from-port="1" to-layer="592" to-port="1" />
		<edge from-layer="592" from-port="2" to-layer="595" to-port="0" />
		<edge from-layer="593" from-port="0" to-layer="594" to-port="0" />
		<edge from-layer="594" from-port="1" to-layer="595" to-port="1" />
		<edge from-layer="595" from-port="2" to-layer="596" to-port="0" />
		<edge from-layer="596" from-port="2" to-layer="597" to-port="1" />
		<edge from-layer="597" from-port="2" to-layer="598" to-port="0" />
		<edge from-layer="598" from-port="2" to-layer="601" to-port="0" />
		<edge from-layer="598" from-port="2" to-layer="629" to-port="1" />
		<edge from-layer="599" from-port="0" to-layer="600" to-port="0" />
		<edge from-layer="600" from-port="1" to-layer="601" to-port="1" />
		<edge from-layer="601" from-port="2" to-layer="604" to-port="0" />
		<edge from-layer="602" from-port="0" to-layer="603" to-port="0" />
		<edge from-layer="603" from-port="1" to-layer="604" to-port="1" />
		<edge from-layer="604" from-port="2" to-layer="605" to-port="0" />
		<edge from-layer="605" from-port="2" to-layer="607" to-port="0" />
		<edge from-layer="606" from-port="0" to-layer="607" to-port="1" />
		<edge from-layer="607" from-port="2" to-layer="610" to-port="0" />
		<edge from-layer="608" from-port="0" to-layer="609" to-port="0" />
		<edge from-layer="609" from-port="1" to-layer="610" to-port="1" />
		<edge from-layer="610" from-port="2" to-layer="613" to-port="0" />
		<edge from-layer="611" from-port="0" to-layer="612" to-port="0" />
		<edge from-layer="612" from-port="1" to-layer="613" to-port="1" />
		<edge from-layer="613" from-port="2" to-layer="616" to-port="0" />
		<edge from-layer="614" from-port="0" to-layer="615" to-port="0" />
		<edge from-layer="615" from-port="1" to-layer="616" to-port="1" />
		<edge from-layer="616" from-port="2" to-layer="619" to-port="0" />
		<edge from-layer="617" from-port="0" to-layer="618" to-port="0" />
		<edge from-layer="618" from-port="1" to-layer="619" to-port="1" />
		<edge from-layer="619" from-port="2" to-layer="620" to-port="0" />
		<edge from-layer="620" from-port="1" to-layer="623" to-port="0" />
		<edge from-layer="621" from-port="0" to-layer="622" to-port="0" />
		<edge from-layer="622" from-port="1" to-layer="623" to-port="1" />
		<edge from-layer="623" from-port="2" to-layer="626" to-port="0" />
		<edge from-layer="624" from-port="0" to-layer="625" to-port="0" />
		<edge from-layer="625" from-port="1" to-layer="626" to-port="1" />
		<edge from-layer="626" from-port="2" to-layer="627" to-port="0" />
		<edge from-layer="627" from-port="2" to-layer="628" to-port="1" />
		<edge from-layer="628" from-port="2" to-layer="629" to-port="0" />
		<edge from-layer="629" from-port="2" to-layer="660" to-port="1" />
		<edge from-layer="629" from-port="2" to-layer="632" to-port="0" />
		<edge from-layer="630" from-port="0" to-layer="631" to-port="0" />
		<edge from-layer="631" from-port="1" to-layer="632" to-port="1" />
		<edge from-layer="632" from-port="2" to-layer="635" to-port="0" />
		<edge from-layer="633" from-port="0" to-layer="634" to-port="0" />
		<edge from-layer="634" from-port="1" to-layer="635" to-port="1" />
		<edge from-layer="635" from-port="2" to-layer="636" to-port="0" />
		<edge from-layer="636" from-port="2" to-layer="638" to-port="0" />
		<edge from-layer="637" from-port="0" to-layer="638" to-port="1" />
		<edge from-layer="638" from-port="2" to-layer="641" to-port="0" />
		<edge from-layer="639" from-port="0" to-layer="640" to-port="0" />
		<edge from-layer="640" from-port="1" to-layer="641" to-port="1" />
		<edge from-layer="641" from-port="2" to-layer="644" to-port="0" />
		<edge from-layer="642" from-port="0" to-layer="643" to-port="0" />
		<edge from-layer="643" from-port="1" to-layer="644" to-port="1" />
		<edge from-layer="644" from-port="2" to-layer="647" to-port="0" />
		<edge from-layer="645" from-port="0" to-layer="646" to-port="0" />
		<edge from-layer="646" from-port="1" to-layer="647" to-port="1" />
		<edge from-layer="647" from-port="2" to-layer="650" to-port="0" />
		<edge from-layer="648" from-port="0" to-layer="649" to-port="0" />
		<edge from-layer="649" from-port="1" to-layer="650" to-port="1" />
		<edge from-layer="650" from-port="2" to-layer="651" to-port="0" />
		<edge from-layer="651" from-port="1" to-layer="654" to-port="0" />
		<edge from-layer="652" from-port="0" to-layer="653" to-port="0" />
		<edge from-layer="653" from-port="1" to-layer="654" to-port="1" />
		<edge from-layer="654" from-port="2" to-layer="657" to-port="0" />
		<edge from-layer="655" from-port="0" to-layer="656" to-port="0" />
		<edge from-layer="656" from-port="1" to-layer="657" to-port="1" />
		<edge from-layer="657" from-port="2" to-layer="658" to-port="0" />
		<edge from-layer="658" from-port="2" to-layer="659" to-port="1" />
		<edge from-layer="659" from-port="2" to-layer="660" to-port="0" />
		<edge from-layer="660" from-port="2" to-layer="662" to-port="0" />
		<edge from-layer="660" from-port="2" to-layer="665" to-port="0" />
		<edge from-layer="661" from-port="0" to-layer="662" to-port="1" />
		<edge from-layer="662" from-port="2" to-layer="664" to-port="0" />
		<edge from-layer="663" from-port="0" to-layer="664" to-port="1" />
		<edge from-layer="664" from-port="2" to-layer="672" to-port="0" />
		<edge from-layer="665" from-port="1" to-layer="669" to-port="0" />
		<edge from-layer="666" from-port="0" to-layer="669" to-port="1" />
		<edge from-layer="667" from-port="0" to-layer="669" to-port="2" />
		<edge from-layer="668" from-port="0" to-layer="669" to-port="3" />
		<edge from-layer="669" from-port="4" to-layer="671" to-port="0" />
		<edge from-layer="670" from-port="0" to-layer="671" to-port="1" />
		<edge from-layer="671" from-port="2" to-layer="672" to-port="1" />
		<edge from-layer="672" from-port="2" to-layer="674" to-port="0" />
		<edge from-layer="673" from-port="0" to-layer="674" to-port="1" />
		<edge from-layer="674" from-port="2" to-layer="677" to-port="0" />
		<edge from-layer="675" from-port="0" to-layer="676" to-port="0" />
		<edge from-layer="676" from-port="1" to-layer="677" to-port="1" />
		<edge from-layer="677" from-port="2" to-layer="680" to-port="0" />
		<edge from-layer="678" from-port="0" to-layer="679" to-port="0" />
		<edge from-layer="679" from-port="1" to-layer="680" to-port="1" />
		<edge from-layer="680" from-port="2" to-layer="681" to-port="0" />
		<edge from-layer="681" from-port="1" to-layer="684" to-port="0" />
		<edge from-layer="682" from-port="0" to-layer="683" to-port="0" />
		<edge from-layer="683" from-port="1" to-layer="684" to-port="1" />
		<edge from-layer="684" from-port="2" to-layer="687" to-port="0" />
		<edge from-layer="685" from-port="0" to-layer="686" to-port="0" />
		<edge from-layer="686" from-port="1" to-layer="687" to-port="1" />
		<edge from-layer="687" from-port="2" to-layer="688" to-port="0" />
	</edges>
	<rt_info>
		<Runtime_version value="2023.3.0-13775-ceeafaf64f3-releases/2023/3" />
		<conversion_parameters>
			<framework value="pytorch" />
			<is_python_object value="True" />
		</conversion_parameters>
	</rt_info>
</net>
